1402_pytorch超分辨率模型训练和测试/super_resolution/model_epoch_1000.pth (torch, 251207 bytes, 8 tensors)

weight f4 [64, 1, 5, 5]
0	0x3e085782	0.13314632
1	0xbe3c023c	-0.18360227
2	0xbd778584	-0.060430065
3	0x3dd01c30	0.10161626
4	0xbd821ed4	-0.06353536
5	0x3e3c73a7	0.18403493
6	0xbc413000	-0.011791229
7	0x3f088d3c	0.53340507
8	0x3de5c50a	0.11219223
9	0xbd292f9d	-0.041305173
10	0xbe04e966	-0.1297966
11	0xbecf908e	-0.40539974
12	0x3d995dc6	0.07488589
13	0x3e34f7be	0.17672631
14	0xbbfd6755	-0.0077332654
15	0x3e1cddbc	0.1531896
16	0x3e58d74e	0.21175882
17	0x3e83954a	0.25699836
18	0x3f202728	0.6255975
19	0x3e1526ef	0.14565633
20	0x3c8f6778	0.017505392
21	0xbe4d555a	-0.2005209
22	0xbe831fc4	-0.25610173
23	0x3e00a815	0.12564118
24	0xbd8511ae	-0.06497513
25	0xbd744967	-0.059640314
26	0xbda63835	-0.081161894
27	0xbd6e9ba2	-0.05825389
28	0x3e086bb3	0.13322334
29	0xbd88290a	-0.066484526
30	0xbd908672	-0.070568934
31	0x3db82530	0.08991468
32	0xbcba36de	-0.02273124
33	0x3e09036d	0.13380213
34	0x3df1ef25	0.11813191
35	0x3e14cce2	0.14531282
36	0x3d520c1b	0.051281076
37	0x3e2388c2	0.15970138
38	0x3f1141e2	0.56741154
39	0xbd35db21	-0.04439843
40	0x3e611490	0.219805
41	0xbdd1ad89	-0.10238177
42	0xbd428d1f	-0.047497865
43	0xbe938135	-0.28809515
44	0xbdf6f526	-0.12058477
45	0x3e0c7c16	0.1371921
46	0xbdda3e3c	-0.106564015
47	0x3da07510	0.07834828
48	0x3e210f46	0.15728483
49	0xbdb31559	-0.08744306
50	0xbe285af7	-0.1644095
51	0xbd831f15	-0.06402413
52	0xbe531688	-0.20614064
53	0x3ce64c1a	0.02811246
54	0xbe7ebbda	-0.24876347
55	0x3e089bb5	0.13340648
56	0xbf069db6	-0.525844
57	0xbdc578ac	-0.09642157
58	0xbe59c67a	-0.21267119
59	0x3dfd9d96	0.12383573
60	0xbc6de77b	-0.014520521
61	0xbe5c628e	-0.2152197
62	0xbe8b98bc	-0.27264965
63	0xbdf8973a	-0.12138219
64	0x3e738154	0.23779804
65	0x3cf487a0	0.029849827
66	0xbd95aecb	-0.0730873
67	0x3de955fb	0.113933526
68	0xbee08aa5	-0.43855777
69	0x3d9ce614	0.076610714
70	0x3dd669c7	0.10469394
71	0x3ccd349b	0.025049498
72	0x3c26a976	0.010172239
73	0xbde858dd	-0.11345074
74	0xbdc0914e	-0.09402715
75	0x3d460d1e	0.048352353
76	0xbe339d01	-0.17540361
77	0xbe7c31a7	-0.24628316
78	0xbe85a8a0	-0.26105213
79	0x3e6750ab	0.22589366
80	0xbd06d497	-0.032917585
81	0xbc8d6842	-0.017261628
82	0xbe4c2ff3	-0.19940166
83	0x3dad764f	0.08469831
84	0xbe097a9a	-0.13425675
85	0xbe333fea	-0.1750485
86	0xbca9d255	-0.020730177
87	0xbe3b270e	-0.18276617
88	0x3e031ea3	0.12804656
89	0x3d7a7f64	0.061156645
90	0xbda67261	-0.08127285
91	0x3e8cbcac	0.27487695
92	0xbd63ef48	-0.05564812
93	0xbdad3cb2	-0.08458842
94	0xbe8c9364	-0.274562
95	0xbee6a988	-0.45051217
96	0x3e899b26	0.2687618
97	0xbe53e164	-0.20691448
98	0x3e7d4348	0.24732697
99	0x3e185d8c	0.14879435
100	0x3ccab1a0	0.024742901
101	0x3e13d51b	0.14436762
102	0x3d1591df	0.036516067
103	0xbedd025c	-0.43165863
104	0x3e00ba59	0.12571086
105	0xbe5be99e	-0.21475837
106	0x3e1fc843	0.15603738
107	0xbe6734fa	-0.22578803
108	0xbeb08eb0	-0.34483862
109	0xbd8a0644	-0.06739476
110	0x3e32d35d	0.17463441
111	0xbd89fbb3	-0.06737461
112	0x3d1af012	0.037826605
113	0xbdd7b65e	-0.10532831
114	0x3e4e1728	0.20126021
115	0xbdb1cb82	-0.08681394
116	0xbe61e928	-0.22061598
117	0xbd92632e	-0.07147823
118	0x3e8cb8fc	0.27484882
119	0x3c81c11b	0.01583915
120	0x3e7edba2	0.24888471
121	0x3db6420d	0.08899317
122	0x3e51349e	0.20430228
123	0x3ca48846	0.020084511
124	0xbdad752c	-0.084696144
125	0x3eaff0f3	0.34363517
126	0xbe0c7e31	-0.13720013
127	0xbd20063f	-0.039068457
128	0xbe744b14	-0.23856765
129	0xbe75661c	-0.23964733
130	0x3e363831	0.17794873
131	0x3e2ea089	0.17053427
132	0x3e285e28	0.16442168
133	0xbdf0ad8b	-0.11751851
134	0xbe95d42d	-0.2926344
135	0x3eab310a	0.3343585
136	0xbdbc1882	-0.09184362
137	0xbe9ff84e	-0.3124413
138	0xbe819532	-0.2530914
139	0xbe9fc5cd	-0.31205598
140	0xbe03daa5	-0.12876375
141	0xbdb84c66	-0.08998947
142	0x3e45687d	0.1927814
143	0xbe0a7718	-0.13521993
144	0xbe62d14f	-0.22150157
145	0xbd16caa0	-0.036814332
146	0xbde29ae0	-0.11064696
147	0x3dfeb8d9	0.12437601
148	0x3db761ae	0.08954178
149	0x3c5063f3	0.012719142
150	0xbe650e7f	-0.22368811
151	0xbd72cc8e	-0.05927711
152	0x3e786847	0.24258529
153	0x3d67d4e0	0.056599498
154	0xbdac2e17	-0.084072284
155	0xbd9dd964	-0.077074796
156	0xbea0588c	-0.31317556
157	0x3e15514a	0.1458179
158	0x3e1b84dc	0.151874
159	0xbec43907	-0.38324758
160	0x3caa10dc	0.020759992
161	0x3d15253b	0.03641246
162	0x3d7d192c	0.061791584
163	0x3c14acd5	0.0090744095
164	0xbe189df9	-0.14904012
165	0x3e8734b7	0.26407406
166	0xbea5e463	-0.32400808
167	0xbe91fcf6	-0.28513306
168	0xbe446905	-0.19180687
169	0x3df28332	0.1184143
170	0xbe26a80b	-0.16275041
171	0x3c3d83c2	0.011567058
172	0xbc9b041d	-0.01892286
173	0xbe1085d7	-0.14113556
174	0xbde1055d	-0.10987351
175	0x3dab0da4	0.08352211
176	0xbd1f797c	-0.038934216
177	0xbe04462a	-0.1291739
178	0x3da1123d	0.07864807
179	0x3d4d816b	0.05017225
180	0xbbffbb5b	-0.007804317
181	0xbd766423	-0.06015409
182	0x3c3965f6	0.011315813
183	0xbe98cd89	-0.2984431
184	0xbd28f85d	-0.041252483
185	0x3caa7cb4	0.020811416
186	0xbda93ad2	-0.08263172
187	0xbeae873c	-0.3408755
188	0xbe57a2f9	-0.21058263
189	0x3e394d7a	0.18095961
190	0xbe7e52a9	-0.2483622
191	0xbe013cca	-0.12620845
192	0xbe244c4b	-0.16044728
193	0x3e0087e5	0.1255184
194	0xbd473a9b	-0.048639875
195	0xbd91729f	-0.0710194
196	0x3d88742e	0.066627845
197	0xbeaf019e	-0.3418092
198	0xbdc47eb5	-0.0959448
199	0xbd554267	-0.05206528
200	0xbdf80303	-0.121099494
201	0x3ea6188b	0.324406
202	0xbc75bfed	-0.014999372
203	0x3cdbacce	0.026815798
204	0xbe34eb98	-0.17667997
205	0xbe120019	-0.1425785
206	0x3d8a38d1	0.06749118
207	0xbe1fd565	-0.15608747
208	0x3d9697ff	0.0735321
209	0xbe973fce	-0.29540867
210	0xbe132382	-0.14369014
211	0x3e1f093a	0.15530863
212	0x3dd4fccf	0.10399782
213	0x3e8caf71	0.274776
214	0x3e2db90d	0.16965123
215	0xbe260362	-0.16212228
216	0xbdf9d354	-0.12198511
217	0xbe057ece	-0.13036653
218	0xbe7ccb7a	-0.24686995
219	0xbe7b8f85	-0.24566467
220	0x3deffc85	0.11718086
221	0x3e31b32c	0.17353505
222	0xbea1c0ca	-0.315924
223	0x3e2aef79	0.16692914
224	0x3d63a260	0.055574775
225	0x3c3045b2	0.010758804
226	0xbe233ba2	-0.15940717
227	0x3d12dc7e	0.03585481
228	0x3e40389c	0.18771595
229	0xbe088494	-0.13331825
230	0x3dfe9060	0.12429881
231	0xbbb5fd3c	-0.0055538695
232	0xbe40b4f2	-0.18819025
233	0xbcdf5afd	-0.027265066
234	0x3d8687a9	0.06568844
235	0x3e93809d	0.28809062
236	0xbe9f1c24	-0.31076157
237	0x3d98a76f	0.074538104
238	0x3d0df2b8	0.034655303
239	0xbe47fc58	-0.19529855
240	0xbeadc5a5	-0.33939853
241	0xbd32adf0	-0.04362291
242	0xbe2b3592	-0.16719654
243	0x3bcaa08e	0.0061836904
244	0x3e2ec47a	0.17067137
245	0x3dcd53c1	0.100257404
246	0xbd5445ee	-0.051824503
247	0xbe331e33	-0.17491989
248	0xbebc1da3	-0.3674136
249	0xbe4d1ee4	-0.20031315
250	0x3c23b3a9	0.009991565
251	0x3d5a72d8	0.05333218
252	0x3e339aee	0.1753957
253	0xbe62e993	-0.22159414
254	0x3d617034	0.055038646
255	0x3e94536e	0.28969902

bias f4 [64]
0	0xbd9e2414	-0.07721725
1	0xbd0aa977	-0.03385302
2	0xbe00a226	-0.12561855
3	0xbdb89071	-0.09011925
4	0xbb8befb5	-0.0042705187
5	0x3d9c5beb	0.076347195
6	0x3e05722e	0.13031837
7	0xbe18c959	-0.14920558
8	0xbe758c6f	-0.23979352
9	0x3d8d316e	0.068941936
10	0x3e023be0	0.12718153
11	0x3e0e207b	0.13879578
12	0xbce2fd58	-0.027708694
13	0x3d4d988a	0.0501943
14	0xbd864302	-0.065557495
15	0xbe5b58e4	-0.21420628
16	0xbe24cb17	-0.16093098
17	0xbe26968c	-0.16268367
18	0xbd13e700	-0.03610897
19	0xbde3aa37	-0.1111645
20	0xbbb094fa	-0.005388853
21	0x3c060ec1	0.008182229
22	0xbe01cb4d	-0.1267521
23	0xbcf3a948	-0.029743806
24	0x3e014138	0.12622535
25	0xbcf714fe	-0.030161377
26	0xbd8aee71	-0.0678376
27	0xbde2fada	-0.110830024
28	0xbdfc6063	-0.12323072
29	0x3c7f26ca	0.015573213
30	0xbe2a3dbf	-0.16625117
31	0x3df183a7	0.11792689
32	0xbd8430d8	-0.06454629
33	0xbe31f05a	-0.17376843
34	0xbe049247	-0.12946425
35	0xbe114035	-0.1418465
36	0xbe086de1	-0.13323165
37	0xbdde4fee	-0.10855089
38	0xbe61993d	-0.22031112
39	0x3b98f38a	0.004667704
40	0xbde58f08	-0.11208922
41	0xbc9a971b	-0.01887088
42	0xbe2b29a6	-0.16715106
43	0xbd2d1044	-0.04225184
44	0xbe276f0f	-0.16350959
45	0xbd3f180c	-0.046653792
46	0xbe39a9d9	-0.18131198
47	0xbcbabb76	-0.022794466
48	0xbcd0f805	-0.02550889
49	0xbe42a194	-0.1900695
50	0x3dd31b9c	0.103080004
51	0x3da61118	0.08108729
52	0x3d81e7f9	0.063430734
53	0x3d231d74	0.03982301
54	0xbe237538	-0.15962684
55	0xbc750fb8	-0.014957361
56	0xbb3f86ec	-0.0029224707
57	0x3e001b31	0.12510373
58	0xbe712ec2	-0.23552993
59	0xbce74bed	-0.028234446
60	0x3cc3f5e9	0.02392097
61	0x3d5ef99a	0.054437257
62	0xbe84f27d	-0.25966254
63	0x3dee7d92	0.116450444

weight f4 [64, 64, 3, 3]
0	0xbc427bf2	-0.011870371
1	0xbdea9b75	-0.11455432
2	0xbd804d87	-0.06264787
3	0xbd9b4c88	-0.075829566
4	0xbcef3990	-0.029202253
5	0x3c7df9bf	0.015501439
6	0xbd2488d4	-0.040169552
7	0xbdf3308c	-0.11874494
8	0x3d805eb5	0.06268064
9	0xbcf37b50	-0.029721886
10	0xbda9b14b	-0.08285769
11	0xbddba487	-0.107247405
12	0xbc46243f	-0.012093603
13	0xbdf8f18f	-0.12155449
14	0xbd606ee6	-0.05479326
15	0xbdf3aae8	-0.11897832
16	0xbda4d8c7	-0.080491595
17	0xbe0d0b00	-0.13773727
18	0xbda12da7	-0.078700356
19	0xbd0b6b3f	-0.034037825
20	0x3d061f7a	0.032744862
21	0xbda2676e	-0.07929884
22	0xbd16f82d	-0.036857773
23	0xbcdc5b9b	-0.02689915
24	0x3caea57d	0.021319145
25	0xbd9e1e8a	-0.077206686
26	0x3d2569ed	0.04038422
27	0xbd97137a	-0.07376762
28	0xbde02d9d	-0.109462
29	0xbc49c08f	-0.012313976
30	0xbcf2fb29	-0.029660778
31	0xbcd228c4	-0.025654204
32	0xbda4bb4f	-0.08043539
33	0x3d07d569	0.03316251
34	0xbd343fef	-0.044006284
35	0xbe14c8ee	-0.14529774
36	0xbdfe3882	-0.12413122
37	0xbd55c9b7	-0.052194323
38	0xbd81aa72	-0.06331338
39	0xbdfda14f	-0.12384283
40	0xbd928692	-0.071545735
41	0xbe0d8004	-0.13818365
42	0x3c3eb006	0.011638647
43	0xbd23a28b	-0.039949935
44	0xbd704c61	-0.05866659
45	0xbd74fd03	-0.059811603
46	0xbe2a2252	-0.16614655
47	0xbd94ca5d	-0.0726516
48	0xbe0ea872	-0.13931444
49	0xbd04e405	-0.03244402
50	0xbd2bc59c	-0.0419365
51	0xbdda2aec	-0.10652718
52	0xbe08ac4d	-0.13346978
53	0xbd610db3	-0.054944705
54	0xbde96061	-0.11395336
55	0x3c14ef55	0.009090264
56	0xbde30843	-0.1108556
57	0xbd6e2f3c	-0.058150515
58	0xbcc4fbe1	-0.024045886
59	0xbd391712	-0.045188017
60	0xbe22918a	-0.15875831
61	0xbda2c879	-0.079483934
62	0xbb1a36f9	-0.0023531301
63	0xbcb8b17c	-0.022545569
64	0xbdfa1779	-0.12211508
65	0x3cfb9e29	0.030715065
66	0xbda10101	-0.078615196
67	0xbd99d70a	-0.075117186
68	0xbdd539b2	-0.10411395
69	0xbdf5477d	-0.11976526
70	0xbd6efd43	-0.058346998
71	0xbd80008d	-0.06250105
72	0xbe086a50	-0.13321805
73	0x3ca80646	0.020510804
74	0xbdaab242	-0.08334781
75	0xbdbd020e	-0.092289075
76	0x3cc88d06	0.024481308
77	0xbd479d44	-0.048733965
78	0xbe28ab16	-0.16471514
79	0xbd7b572b	-0.061362427
80	0xbdb0344d	-0.086037256
81	0xbde9f828	-0.11424285
82	0x3d376a01	0.044778828
83	0xbd8b2b83	-0.067954086
84	0x3d25deb2	0.040495582
85	0xbd3005e6	-0.042974375
86	0x3d8eb3fb	0.06967922
87	0xbd8f02f0	-0.06982982
88	0xbd75a7c1	-0.059974436
89	0xbdd24e0a	-0.10268791
90	0xbda756aa	-0.08170827
91	0xbe029f3d	-0.12756057
92	0x3ced0fb0	0.028938144
93	0x3d4afa54	0.049555138
94	0xbe09a92d	-0.13443442
95	0xbd11a73b	-0.035559874
96	0xbe524c57	-0.20536934
97	0xbca10de7	-0.01965995
98	0xbe2afa74	-0.16697103
99	0xbd064726	-0.032782696
100	0x3ccadae2	0.024762575
101	0xbe03e321	-0.12879612
102	0xbce81c73	-0.028333878
103	0xbdba2d98	-0.090907276
104	0xbd050581	-0.032475952
105	0xbd8e5241	-0.069492824
106	0x3d0e5213	0.03474624
107	0xbd452db2	-0.04813928
108	0xbcdaa66d	-0.026690686
109	0x3b3e6422	0.0029051383
110	0xbda94614	-0.082653195
111	0x3d72efc4	0.05931069
112	0x3bb96efd	0.005658983
113	0xbd3e2bb3	-0.046428394
114	0xbe05486e	-0.13015911
115	0xbda81bb3	-0.08208408
116	0xbdd80c27	-0.10549193
117	0xbd577849	-0.052604947
118	0x3c762cde	0.015025346
119	0xbd6c0bbf	-0.05762839
120	0xbc89ba94	-0.0168126
121	0xbde6656a	-0.11249812
122	0xbdd91607	-0.105999045
123	0xbd25caa5	-0.04047646
124	0xbda5384b	-0.08067378
125	0xbba6bf52	-0.005088725
126	0xbd1df6f1	-0.03856558
127	0x3d1db049	0.038498197
128	0xbdcb9a50	-0.09941542
129	0xbc4a8a07	-0.01236201
130	0xbdd2201e	-0.10260032
131	0xbdad0f77	-0.08450215
132	0xbdf1b5ed	-0.11802278
133	0xbd5a7b38	-0.053340167
134	0xbde56793	-0.11201396
135	0xbd493bfe	-0.04912948
136	0xbde39ecf	-0.11114275
137	0xbd8c185d	-0.068405844
138	0xbd09792c	-0.033562824
139	0xbca0349c	-0.019556336
140	0xbdf9c7c5	-0.12196306
141	0xba83a100	-0.0010042489
142	0xbda0d7c1	-0.07853652
143	0xbd312726	-0.043250225
144	0x3dc86dd4	0.09786573
145	0x3da87171	0.08224762
146	0x3dd96261	0.106144674
147	0xbd7956a6	-0.06087365
148	0xbd85ba42	-0.065296665
149	0xbd4e3f07	-0.050353076
150	0x3bf57b19	0.007491481
151	0x3d89e673	0.06733408
152	0x3d3a6f12	0.04551608
153	0xbd9c16c3	-0.07621529
154	0x3bb32930	0.0054675564
155	0xbe189583	-0.14900784
156	0xbd8f933e	-0.07010506
157	0xbd453dba	-0.04815457
158	0x3c686958	0.014185272
159	0xbe1a4b2d	-0.1506774
160	0xbe2248ca	-0.1584808
161	0x3d739161	0.059464816
162	0xbddab487	-0.10678964
163	0xbd5a950c	-0.0533648
164	0xbdb0eb50	-0.08638632
165	0xbdcd1764	-0.10014227
166	0x3cc688df	0.024235187
167	0xbda18a6c	-0.0788773
168	0xbdab4184	-0.083621055
169	0xbd7682d3	-0.060183357
170	0xbd8e5400	-0.069496155
171	0x3d0b711e	0.034043424
172	0x3d4ba803	0.049720775
173	0xbe19b37d	-0.15009876
174	0xbc3edb32	-0.01164894
175	0xbd02737a	-0.03184841
176	0x3cbc1c0d	0.022962594
177	0xbdad156d	-0.08451352
178	0xbdc64eea	-0.096830204
179	0xbda30291	-0.07959474
180	0xbd93d457	-0.07218235
181	0xbd220b51	-0.039561573
182	0x3d66792e	0.05626791
183	0xbbcb71b9	-0.006208625
184	0xbced1684	-0.0289414
185	0x3ab14841	0.0013525562
186	0xbcf48c83	-0.029852157
187	0xbd646424	-0.055759564
188	0xbdee8870	-0.11647117
189	0xbdda7109	-0.10666091
190	0xbdbcb24c	-0.09213695
191	0x3dc0385c	0.0938575
192	0xbd054090	-0.032532275
193	0xbe01a740	-0.12661457
194	0xbdfd72f7	-0.123754434
195	0xbd52346d	-0.05131953
196	0xbd8c2681	-0.068432815
197	0xbe204414	-0.1565097
198	0x3d3307d6	0.043708645
199	0x3cb60c6b	0.022222718
200	0xbc261459	-0.010136687
201	0x3c0f44d9	0.008744442
202	0x3d0b6805	0.034034748
203	0xbc00918d	-0.007847202
204	0xbe0929e9	-0.13394894
205	0xbd98d8b8	-0.07463211
206	0x3d86ab6a	0.065756634
207	0xbe1ba177	-0.15198313
208	0xbe07d71d	-0.13265653
209	0xbdbc02da	-0.091802314
210	0x3dd396e9	0.10331518
211	0xbe0e34b9	-0.138873
212	0xbd603fee	-0.054748468
213	0xbd9bf60b	-0.07615288
214	0xbe366b66	-0.17814407
215	0xbd13bf6b	-0.036071222
216	0xbdc36a15	-0.09541718
217	0xbe14adf2	-0.1451948
218	0xbe13ab76	-0.14420876
219	0xbc245eac	-0.010032337
220	0xbda43e84	-0.080197364
221	0xbda1b6ce	-0.07896195
222	0xbdf26c5b	-0.118370734
223	0xbd6897c8	-0.056785375
224	0xbe098ef7	-0.13433443
225	0xbd8ee8a9	-0.0697797
226	0xbdb868b0	-0.090043426
227	0xbe1a32db	-0.15058462
228	0xbded8858	-0.11598271
229	0xbe03e0fb	-0.12878792
230	0xbdb50364	-0.08838537
231	0xbd9ef8d2	-0.077623025
232	0xbe0e63b8	-0.13905227
233	0xbe088712	-0.13332775
234	0xbe32e3e6	-0.17469749
235	0xbd40b6e9	-0.047049437
236	0xbc130991	-0.008974449
237	0xbcbbe229	-0.02293499
238	0xbe1e10e7	-0.15436135
239	0xbdb33cc4	-0.087518245
240	0xbcf00046	-0.029297005
241	0xbe26333f	-0.16230486
242	0xbbf69b32	-0.007525825
243	0xbd4ea798	-0.0504528
244	0x3bc1ea94	0.0059178565
245	0xbd8bbac8	-0.06822735
246	0x3d594c00	0.053050995
247	0xbd1c51a6	-0.038163804
248	0xbcf6615e	-0.030075725
249	0xbc40ace4	-0.01175997
250	0xbc52c1b2	-0.012863563
251	0xbb8f9c57	-0.004382651
252	0xbd8eb59d	-0.06968234
253	0xbcc326e7	-0.023822261
254	0xbc0632fe	-0.008190868
255	0xbe2f74b0	-0.17134356

bias f4 [64]
0	0xbda03fca	-0.07824667
1	0xbd9bb4e4	-0.076028615
2	0xbc470ac8	-0.012148567
3	0xbd80fd7d	-0.06298349
4	0xbd021268	-0.031755835
5	0xbd59d63d	-0.05318283
6	0xbca9427c	-0.020661585
7	0xbda00cde	-0.07814954
8	0xbcda2590	-0.02662924
9	0xbcbd4e5f	-0.02310866
10	0xbd9028f8	-0.07039064
11	0xbdce4105	-0.10070995
12	0xbdc1f9c5	-0.09471468
13	0xbd37b8d2	-0.044853993
14	0xbcde1bf3	-0.027112937
15	0xbce0eebd	-0.02745759
16	0xbcef17d4	-0.029186167
17	0xbd01f401	-0.03172684
18	0xbd4a15ea	-0.049337305
19	0xbd9e20a5	-0.0772107
20	0xbcd4971e	-0.025950965
21	0xbd681148	-0.056657106
22	0xbd8b4a10	-0.06801236
23	0xbddeadae	-0.108729705
24	0xbd3292cb	-0.043597024
25	0xbd86819b	-0.06567689
26	0xbd88f64d	-0.06687603
27	0xbd207004	-0.039169326
28	0xbda5f180	-0.08102703
29	0xbc2bed3d	-0.010493574
30	0xbd80ba38	-0.062855184
31	0xbcbec323	-0.023286408
32	0xbdc821be	-0.09772061
33	0xbdc7f90f	-0.09764301
34	0xbd7f8afe	-0.062388413
35	0xbd6531e4	-0.055955783
36	0xbdec5b23	-0.115408204
37	0xbc980c49	-0.018560546
38	0xbdb12c0d	-0.0865098
39	0xbd8e205c	-0.06939766
40	0xbc992575	-0.018694619
41	0xbd450fbb	-0.048110705
42	0xbd63ff96	-0.055663668
43	0xbdb72f42	-0.089445606
44	0xbdc9d48a	-0.09854992
45	0xbc3afcb2	-0.011412786
46	0xbce0d854	-0.027446903
47	0xbd97a1dc	-0.07403919
48	0xbdb74408	-0.08948523
49	0xbd3f6f39	-0.04673693
50	0xbc8b2a3a	-0.016987909
51	0xbd8c17a8	-0.068404496
52	0xbd7c1bb4	-0.061549857
53	0xbda0b434	-0.07846871
54	0xbd9317a2	-0.07182242
55	0xbcee708e	-0.029106405
56	0xbdb070af	-0.08615243
57	0xbd788b4a	-0.06067971
58	0xbd2e37c2	-0.042533644
59	0xbcfb4e6a	-0.03067704
60	0xbd91c270	-0.07117164
61	0xbdcd7355	-0.100317635
62	0xbd1bb164	-0.03801097
63	0xbd5b86d1	-0.053595368

weight f4 [32, 64, 3, 3]
0	0xbd60bf84	-0.054870144
1	0xbe410727	-0.18850385
2	0xbdd982c0	-0.10620642
3	0xba7abc26	-0.00095647795
4	0xbdda400e	-0.10656749
5	0x3d0707b8	0.032966346
6	0xbd926a6f	-0.07149207
7	0xbd23c067	-0.03997841
8	0x3c637c51	0.01388462
9	0xbde2900a	-0.110626295
10	0xbd897b70	-0.06712997
11	0xbe3dd5c6	-0.1853858
12	0xbdc15015	-0.094391026
13	0xbb0b1de2	-0.0021227528
14	0xbdb8b0a6	-0.09018068
15	0x3d81a223	0.06329753
16	0xbcc6eee4	-0.024283834
17	0xbdccad93	-0.09994044
18	0x3d488803	0.048957836
19	0x3c73174f	0.0148371
20	0x3d9ffa2c	0.078113884
21	0xbbce48e1	-0.006295309
22	0x3d15f26a	0.036608137
23	0x3dab2e70	0.083584666
24	0x3cb9742e	0.022638407
25	0x3d5b09ef	0.05347627
26	0x3d58cc8d	0.05292945
27	0xbbbcea4b	-0.0057652346
28	0x3c647aa9	0.01394526
29	0xbc7ff058	-0.015621267
30	0x3d03ad01	0.03214741
31	0xbddef954	-0.10887399
32	0xbd8bdd43	-0.06829312
33	0xbb1940a9	-0.0023384488
34	0xbe26136a	-0.16218343
35	0x3d0a4c0e	0.033763938
36	0x3d8bd689	0.06828029
37	0xbd79eebb	-0.061018687
38	0xbd5931c2	-0.05302597
39	0xbd621243	-0.055193197
40	0xbe108cde	-0.14116237
41	0x3d5a978b	0.05336718
42	0xbcb251ca	-0.021767516
43	0xbd8c32d0	-0.06845629
44	0xbdbf1cc9	-0.09331662
45	0xbdb2aca6	-0.08724336
46	0x3d6c5923	0.057702195
47	0xbcfeef3f	-0.03111994
48	0xbe021a38	-0.12705314
49	0x3dbe7319	0.09299297
50	0xbd9c9411	-0.07645429
51	0xbdb8c978	-0.09022802
52	0x3dc7586d	0.09733663
53	0xbde5cd20	-0.11220765
54	0xbd71cae3	-0.05903138
55	0x3c9464d5	0.018114487
56	0x3abbd68f	0.0014330911
57	0xbd90fa9e	-0.070790514
58	0xbcf34655	-0.029696623
59	0xbd84ef6e	-0.0649098
60	0xbe6eb862	-0.23312524
61	0xbd761464	-0.06007804
62	0xbd8e700f	-0.06954967
63	0xbbbfb901	-0.0058509116
64	0xbc9a303d	-0.01882183
65	0x3d1c61cf	0.038179215
66	0xbcacb785	-0.021083603
67	0x3da3a6f3	0.079908274
68	0xbb1cebe7	-0.002394432
69	0xbc9a4ff5	-0.018836955
70	0x3ddf7db8	0.10912651
71	0x3b53bbcb	0.0032307978
72	0xbc286a40	-0.010279238
73	0x3bc1eeb5	0.0059183487
74	0x3d5480bc	0.051880583
75	0xbd9e6a5a	-0.07735129
76	0x3d06b0cd	0.032883454
77	0xbdf41a6f	-0.11919104
78	0xbdbab729	-0.09116966
79	0xbc7f0dbd	-0.01556724
80	0xbd7f4256	-0.062319122
81	0xbde4a64a	-0.111645296
82	0x3d711dc2	0.05886627
83	0xbd944260	-0.072392225
84	0x3e8bc1f3	0.2729641
85	0x3df806a2	0.1211064
86	0xbc964730	-0.018344492
87	0x3d31a100	0.043366432
88	0x3d044d79	0.032300446
89	0x3dad52fa	0.08463092
90	0xbdcdb9a6	-0.10045175
91	0xbb96556a	-0.004587819
92	0xbcbf5c3c	-0.02335941
93	0xbde4c886	-0.11171059
94	0xbe105fb7	-0.14099012
95	0xbd40ea24	-0.047098294
96	0xbdb1d866	-0.08683853
97	0xbdfd0b02	-0.12355615
98	0x3d392b82	0.045207508
99	0x3d743c40	0.05962777
100	0x3cd201c4	0.025635608
101	0x3d3e8d8f	0.04652172
102	0x3c99221e	0.018693026
103	0xbc0cb4d8	-0.008588038
104	0xbd34b3f0	-0.044116914
105	0xbdc2230d	-0.09479342
106	0xbe0078f6	-0.12546143
107	0xbd8bd5de	-0.06827901
108	0xbe14dfb5	-0.14538462
109	0xbdfecb60	-0.124411345
110	0x3dfa5390	0.122229695
111	0xbd12ef30	-0.03587264
112	0xbc674307	-0.014115102
113	0xbdb2724d	-0.087132074
114	0xbd80adbd	-0.06283138
115	0xbcb7dbec	-0.022443734
116	0xbcb901af	-0.02258381
117	0xbd6444c3	-0.05572964
118	0xbe234898	-0.15945661
119	0xbdb503ee	-0.0883864
120	0xbabafc79	-0.0014265917
121	0x3cb621a0	0.02223283
122	0xbc8e62f3	-0.017381167
123	0xbd294691	-0.041327063
124	0xbdd6ba6c	-0.10484776
125	0xbdf33172	-0.11874665
126	0xbd725a0c	-0.059167907
127	0xbe057747	-0.13033782
128	0xbc8b633c	-0.017015092
129	0x3cd99e38	0.026564702
130	0xbdb078cb	-0.086167894
131	0x3d4820bd	0.048859347
132	0xbd061ea7	-0.032744076
133	0x3dd5fd4b	0.104487024
134	0x3c230117	0.00994899
135	0xbcdf13e7	-0.02723117
136	0xbda59b3d	-0.0808625
137	0xbdd157af	-0.102218024
138	0xbe06d75b	-0.13168089
139	0xbc94f94b	-0.018185278
140	0xbdcb54ea	-0.099283054
141	0xbd570d9d	-0.052503217
142	0xbe1768ed	-0.1478612
143	0xbdad4d23	-0.08461978
144	0xbde8fb17	-0.113760166
145	0xbdf57d89	-0.119868346
146	0xbd5d9c49	-0.054104123
147	0xbe183240	-0.14862919
148	0xbca12e23	-0.01967532
149	0x3cd15197	0.0255516
150	0xbe09a8cf	-0.13443302
151	0x3cf95c2a	0.030439455
152	0xbe28a83e	-0.1647043
153	0xbdfde0f2	-0.123964205
154	0xbba21bdc	-0.0049471688
155	0x3c56d3cf	0.013112023
156	0xbe0e684c	-0.13906974
157	0xbd8e89ad	-0.06959853
158	0xbc526018	-0.012840293
159	0xbbd3be59	-0.0064619
160	0xbdd25653	-0.10270371
161	0xb9e2c67d	-0.00043253964
162	0x3b6ccf81	0.0036134424
163	0xbce3d634	-0.027812101
164	0xbd2a02eb	-0.04150669
165	0xbd672365	-0.05643024
166	0x3c927d1c	0.017881922
167	0xbdb234cf	-0.08701479
168	0x3d65a13c	0.05606197
169	0x3b61a13d	0.003442838
170	0x3d9ac994	0.07557979
171	0xbe007e64	-0.12548214
172	0xbd376c92	-0.044781275
173	0xbd6b4aeb	-0.057444494
174	0xbe0074d5	-0.12544568
175	0xbdd3c056	-0.103394195
176	0xbe06ecc8	-0.13176262
177	0x3b959e1b	0.004565967
178	0x3e2bf00b	0.16790788
179	0x3c604c36	0.013690045
180	0xbd4a91d7	-0.04945549
181	0x3d0a4c9c	0.033764467
182	0xbcf7d2a9	-0.030251818
183	0xbcd1a24a	-0.02559008
184	0xbd6538d8	-0.055962414
185	0xbd5ed5ed	-0.054403234
186	0xbd8d71bf	-0.06906461
187	0xbe265a89	-0.16245474
188	0x3d954a0d	0.07289515
189	0x3da86048	0.08221489
190	0xbd9e3c34	-0.077263266
191	0xbd86f66a	-0.065899685
192	0xbcd041ea	-0.025422055
193	0xbd6f50fb	-0.05842684
194	0xbdf6c776	-0.12049763
195	0xbcebc1e2	-0.028778974
196	0xbe202c35	-0.15641864
197	0xbbfb498b	-0.007668679
198	0xbd8aebd2	-0.067832604
199	0xbc3b774b	-0.011442016
200	0xbd51e145	-0.051240224
201	0xbb8ff88b	-0.0043936423
202	0xbd18bf5d	-0.037291873
203	0xbdfac069	-0.122437306
204	0xbe0126d1	-0.12612464
205	0xbd98c39e	-0.07459186
206	0xbc287b11	-0.010283248
207	0x3e0d6822	0.13809255
208	0xbc3f4eff	-0.011676549
209	0x3d13e259	0.036104534
210	0x3da84d6c	0.08217892
211	0x3da66224	0.081241876
212	0x3e00184f	0.12509273
213	0x3ccdf922	0.02514321
214	0x3dc3cf8e	0.09561072
215	0xbd6524da	-0.055943348
216	0xbe44f3dc	-0.1923365
217	0x3d8f9e60	0.070126295
218	0xbe04afbc	-0.12957662
219	0xbe26de71	-0.16295792
220	0x3d3ea5b7	0.046544757
221	0xbd845761	-0.06461979
222	0xbcee9f42	-0.029128674
223	0x3d68b1d6	0.056810223
224	0x3dd11049	0.10208184
225	0xbdbf9647	-0.09354835
226	0xbd63aaaf	-0.0555827
227	0xbe291c15	-0.16514619
228	0xbd76aaed	-0.0602216
229	0xbd4723d8	-0.048618168
230	0xbc5171e2	-0.012783499
231	0xbd0f9f24	-0.035063878
232	0xbdc9bcf1	-0.09850491
233	0xbd952923	-0.07283237
234	0xbe30966f	-0.17244886
235	0xbd9cc6a7	-0.076550774
236	0x3acaea3e	0.0015481187
237	0x3d83f42c	0.064430565
238	0xbd165968	-0.03670636
239	0x3df1b61b	0.11802312
240	0xbe35ca27	-0.17752896
241	0x3e1e63fd	0.1546783
242	0x3d9da5a9	0.07697613
243	0xbe241272	-0.16022661
244	0xbd46afde	-0.048507564
245	0xbdec7f2d	-0.11547694
246	0x3d9fed12	0.078088894
247	0xbdfd9f56	-0.123839065
248	0x3cf2a862	0.029621307
249	0xbccb8f9e	-0.024848755
250	0xbe5426b6	-0.20717892
251	0xbd285173	-0.0410933
252	0xbdd9f6ea	-0.10642798
253	0x3cfaea10	0.030629188
254	0xbcec7dbe	-0.028868552
255	0x3c96603c	0.018356435

bias f4 [32]
0	0x3bb2338b	0.0054382733
1	0x3bc900e2	0.0061341384
2	0xbd1600c0	-0.03662181
3	0xbd769244	-0.060198084
4	0x3c45b929	0.012068071
5	0xbcb26e44	-0.021781094
6	0xbe36e94c	-0.17862433
7	0xbd8bb638	-0.06821865
8	0xbcb2e798	-0.021838948
9	0xbd7ff9d9	-0.062494133
10	0xbd3f569b	-0.046713453
11	0xbccbb149	-0.02486481
12	0x3c4c25b7	0.012460164
13	0x3cab4cd8	0.020910665
14	0xbdc817f7	-0.09770196
15	0xbccb1a3f	-0.024792789
16	0xbd8eae93	-0.06966891
17	0xbd4513f2	-0.048114724
18	0xbda0aceb	-0.078454815
19	0xbd5d3529	-0.054005776
20	0xbb00e77d	-0.0019669228
21	0xbd3e0217	-0.04638871
22	0xbdbc84ed	-0.09205041
23	0xbd36657e	-0.044530384
24	0xbd49f1b4	-0.04930277
25	0xbcb9f68c	-0.02270057
26	0x3c830ca3	0.015997237
27	0xbd6353b1	-0.055499736
28	0xbd472f15	-0.048628885
29	0x3d062d1a	0.032757856
30	0xbca8acb8	-0.020590171
31	0xbb86de8e	-0.004115886

weight f4 [16, 32, 3, 3]
0	0x3c9b3984	0.018948324
1	0x3d17329a	0.03691349
2	0xbd6fa99e	-0.05851137
3	0xbe176287	-0.14783679
4	0xbe19d6db	-0.15023367
5	0xbda1a1ad	-0.07892165
6	0xbc5644de	-0.013077943
7	0x3e105e64	0.14098507
8	0x3da5af99	0.08090133
9	0xbef91ad8	-0.48653293
10	0xbd3f3b83	-0.046687614
11	0xbe01b9cc	-0.12668532
12	0xbd9f3e12	-0.07775511
13	0x3e894a66	0.26814574
14	0x3cec0acf	0.028813748
15	0xbc0e435e	-0.008683054
16	0xbcb9c0df	-0.022674976
17	0x3bb4f59e	0.005522444
18	0xbd4713cb	-0.04860286
19	0xbd948a4c	-0.072529405
20	0xbdcf6ce0	-0.10128188
21	0xbd9d36e4	-0.07676485
22	0x3c0a2011	0.008430497
23	0xbd8050ef	-0.06265437
24	0xbcd1cc85	-0.025610218
25	0xbdacf845	-0.08445791
26	0xbcd37352	-0.025811825
27	0xbd1978bc	-0.037468657
28	0xbd9999bd	-0.075000264
29	0xbe490de1	-0.196342
30	0x3d92a0a4	0.07159546
31	0x3c639c3c	0.01389223
32	0xbdad4ad6	-0.084615394
33	0x3d15e587	0.036595847
34	0xbd5a65f2	-0.05331988
35	0xbddaabf7	-0.10677331
36	0xbdb9a68b	-0.09064969
37	0x3cd7f7f1	0.026363345
38	0xbc85c684	-0.016330011
39	0xbd756869	-0.059914026
40	0xbd824dc6	-0.0636249
41	0x3e14a852	0.14517334
42	0x3d113cbf	0.035458323
43	0x3e16a79a	0.14712372
44	0x3dc1dd31	0.09466017
45	0x3d9af4c9	0.0756622
46	0xbd9ae88e	-0.075638875
47	0x3d880ae0	0.06642699
48	0xbd87431e	-0.066045985
49	0xbcdc7f54	-0.026916184
50	0xbdd8d113	-0.10586753
51	0xbba2dd9f	-0.004970267
52	0xbd6e7065	-0.058212657
53	0x3b268516	0.0025408915
54	0xbde1edc4	-0.11031678
55	0xbdf9e895	-0.122025646
56	0xbde43202	-0.11142351
57	0xbcb082f1	-0.021546813
58	0x3d90a956	0.07063548
59	0xbc755473	-0.014973748
60	0xbdd55488	-0.10416514
61	0xbd1bb8de	-0.0380181
62	0x3ab498a6	0.0013778403
63	0x3db1e3e9	0.086860485
64	0xbda352d3	-0.07974782
65	0xbdbeea53	-0.093220375
66	0xbd4718c8	-0.048607618
67	0xbb96a959	-0.0045978245
68	0xbddcf164	-0.10788229
69	0xbca3eece	-0.020011332
70	0xbdab6e59	-0.083706565
71	0x3c2e78ee	0.010648949
72	0xbe4ab107	-0.19794093
73	0x3da21901	0.07914925
74	0xbd2c0ba3	-0.042003285
75	0x3dc1bb45	0.09459547
76	0x3e4e76b3	0.20162468
77	0x3ddaf297	0.106908016
78	0xbc760019	-0.015014672
79	0x3e0abfb5	0.13549693
80	0x3d4f0644	0.050543085
81	0x3ddaaa23	0.10676982
82	0x3d93c9b2	0.07216205
83	0xbc33a9bd	-0.010965762
84	0x3e3af95c	0.18259186
85	0x3dc1450a	0.09436996
86	0xbb34ef7e	-0.0027608569
87	0x3d9591ac	0.07303175
88	0x3d069f9d	0.032867063
89	0x3dba2afa	0.090902284
90	0x3ce6d2eb	0.028176745
91	0xbdfa7369	-0.12229044
92	0xbd8851d5	-0.06656233
93	0x3dce02c8	0.10059124
94	0xbd8aa802	-0.06770326
95	0xbda263a9	-0.07929165
96	0xbda0e0c0	-0.07855368
97	0xbd9e92c5	-0.07742838
98	0xbd1567d5	-0.036475975
99	0xbe009284	-0.12555891
100	0xbdc08a46	-0.094013736
101	0xbdb013a3	-0.085974954
102	0x3bfa4599	0.007637691
103	0xbcc9632b	-0.02458342
104	0x3b77f757	0.0037836635
105	0xbe1aa926	-0.15103588
106	0x3c968a7e	0.018376585
107	0xbc384c50	-0.011248663
108	0xbdcdf671	-0.100567706
109	0x3c89394f	0.01675096
110	0xbd26d2a9	-0.040728245
111	0xbd627b6f	-0.055293497
112	0xbd846ecf	-0.064664476
113	0x3d3443f2	0.04401011
114	0xbe1af5d3	-0.15132837
115	0xbdd1479b	-0.10218736
116	0xbcb4c917	-0.022068543
117	0x3d969f01	0.07354546
118	0xbd546716	-0.051856123
119	0xbdd0015b	-0.101565085
120	0x3cba09d0	0.022709757
121	0x3d41d1e0	0.047319293
122	0xbb6a7dd0	-0.0035780556
123	0x3d7ee9b3	0.06223459
124	0x3d121a44	0.03566958
125	0xbdaff8f7	-0.08592408
126	0x3dcc4744	0.0997453
127	0x3d98b7a7	0.07456904
128	0x3d028e9c	0.031874284
129	0xbd5e567a	-0.05428169
130	0xbcd8482f	-0.026401607
131	0xbc26e1b2	-0.010185646
132	0x3dc71e91	0.09722627
133	0x3ca560ac	0.020187698
134	0xbd3c5560	-0.045979857
135	0xbc644216	-0.013931772
136	0x3e3ed9c0	0.18637753
137	0x3d899cce	0.06719361
138	0x3c7facf9	0.015605205
139	0x3e1eaa13	0.15494566
140	0x3d8d2e7c	0.06893632
141	0x3da5b372	0.08090867
142	0x3deb86f5	0.115003504
143	0x3c81f102	0.015861992
144	0xbda49904	-0.08036998
145	0x37c42c79	2.338573e-05
146	0xbdd39a0c	-0.103321165
147	0x3cf45319	0.02982478
148	0xbbd5cd3d	-0.0065247105
149	0x3df67d0d	0.1203557
150	0xbc283c09	-0.01026822
151	0xbd32348e	-0.04350715
152	0xbdb1ae76	-0.08675854
153	0xbdb47594	-0.08811489
154	0xbd90f617	-0.07078188
155	0xbd812cb1	-0.06307352
156	0xbd3c1600	-0.04591942
157	0xbdd0cd59	-0.10195417
158	0xbdd49046	-0.103790805
159	0xbd1a89cc	-0.03772907
160	0xbdad7375	-0.08469287
161	0x3d580f44	0.052748933
162	0xbc94b3ee	-0.018152203
163	0xbc80da5f	-0.015729127
164	0xbd35e981	-0.04441214
165	0x3cbbf931	0.022945972
166	0xbddafa2f	-0.1069225
167	0xbe1d1c73	-0.15342884
168	0x3c953fa8	0.01821883
169	0xbcfbb26d	-0.030724728
170	0xbda7cd30	-0.08193433
171	0x3d469ddc	0.04849039
172	0x3d445ef0	0.047942102
173	0x3dbd8e0a	0.092556074
174	0xbd88762b	-0.06663164
175	0x3d8d53de	0.06900762
176	0x3d88eb7d	0.06685541
177	0x3d67adb8	0.056562155
178	0x3cf1b3c2	0.02950466
179	0x3e0aacfa	0.13542548
180	0xbcf33a08	-0.029690757
181	0x3e551f1d	0.2081265
182	0x3d982264	0.074284345
183	0x3cf6a0bd	0.030105943
184	0x3e3966c9	0.18105616
185	0xbcbddc5d	-0.023176366
186	0xbd7bb421	-0.06145108
187	0x3e1331bb	0.1437444
188	0xbd5e1d28	-0.054227024
189	0xbcf27a1e	-0.029599246
190	0xbca871e2	-0.020562116
191	0xbd31078d	-0.04322009
192	0xbe420e47	-0.18950759
193	0xbce0f4f3	-0.02746055
194	0x3cd22bea	0.025655705
195	0xbc74ea70	-0.014948472
196	0xbda7e228	-0.08197433
197	0xbdba56e4	-0.09098604
198	0x3d953db4	0.072871596
199	0xbc98981b	-0.018627217
200	0x3cbb23a1	0.022844138
201	0x3c2061cd	0.0097889425
202	0x3d874d39	0.06606526
203	0xbc20564e	-0.009786202
204	0x3d47d7ae	0.048789673
205	0x3dc140b4	0.09436169
206	0x3a67ee13	0.00088474265
207	0x3d4e6a0d	0.050394107
208	0xbbaec419	-0.0053334353
209	0xbd5fef15	-0.054671366
210	0xbd60b0e5	-0.0548562
211	0x3da27ea9	0.07934315
212	0xb9e80519	-0.00044254286
213	0xbe0dc09d	-0.13843007
214	0xbd31ad14	-0.04337795
215	0xbdcb9137	-0.09939807
216	0xbd442f9c	-0.047896966
217	0xbd577e2d	-0.052610565
218	0xbd3aab91	-0.045573775
219	0xbde993fa	-0.114051774
220	0xbdf4dd17	-0.11956232
221	0xbc9b26ba	-0.018939365
222	0xbded1564	-0.115763456
223	0x3d23dc13	0.0400048
224	0x3ba7f528	0.0051256604
225	0xba250e9f	-0.0006296429
226	0xbdd73777	-0.10508626
227	0x3db2f7eb	0.08738693
228	0x3d92f068	0.0717476
229	0x3d244e65	0.040113825
230	0xbd6aa94c	-0.05729036
231	0xbd2d0c30	-0.04224795
232	0xbca35f66	-0.01994295
233	0xbde4f027	-0.11178618
234	0xbdd19d8c	-0.10235128
235	0xbe641bcd	-0.2227623
236	0x3c907628	0.017634466
237	0x3dadf179	0.08493323
238	0xbdcfe431	-0.10150946
239	0xbd032d59	-0.03202567
240	0x3da50f6d	0.08059583
241	0x3cf11cf5	0.029432753
242	0xbd2011c9	-0.03907946
243	0x3c2979a6	0.010343945
244	0xbd185621	-0.037191514
245	0x3d053a55	0.032526333
246	0xbceefcf3	-0.02917335
247	0xbd31f26b	-0.04344408
248	0xbe3eb2e3	-0.18622927
249	0xbe1be168	-0.15222704
250	0xbcecb19f	-0.02889329
251	0x3d829fe4	0.06378153
252	0xbc9a97e6	-0.018871259
253	0xba7e8086	-0.00097084825
254	0x3b003928	0.0019565318
255	0xbd9bcd53	-0.07607522

bias f4 [16]
0	0x3d2ee031	0.042694274
1	0x3d3adec1	0.04562259
2	0x3d3183ba	0.043338515
3	0x3d2bbf3d	0.041930426
4	0x3d241390	0.04005772
5	0x3d305b21	0.043055657
6	0x3d28085c	0.041023597
7	0x3d426393	0.047458243
8	0x3d1c89df	0.03821742
9	0x3d2d812f	0.042359527
10	0x3d35f49d	0.044422735
11	0x3d330d22	0.043713696
12	0x3d224b3c	0.03962253
13	0x3d16b1a0	0.03679049
14	0x3d27eb5d	0.040995944
15	0x3d20c15b	0.0392469
