1402_pytorch超分辨率模型训练和测试/super_resolution/model_epoch_200.pth (torch, 251207 bytes, 8 tensors)

weight f4 [64, 1, 5, 5]
000000 75 b2 50 3e 2b 2b 6a be 0c 84 5e bd db f6 17 3e
       0.20380576 -0.2286803 -0.05432515 0.14840262
000010 5b 0f 84 3d aa 0d 14 3e 66 8f 2e bd 8b cd ac 3e
       0.06448241 0.14458337 -0.042617224 0.33750567
000020 ca 03 af 3d 07 91 c6 bd 35 7c 47 be 9a 07 bb be
       0.085456446 -0.096956305 -0.19480975 -0.36529237
000030 c4 e1 dc bc a0 00 14 3e e8 f2 ff bb 0a 32 39 3e
       -0.026963122 0.14453363 -0.007810939 0.18085495
000040 85 f2 cc 3d 5c f3 3b 3e b2 0b 12 3f a3 26 3e 3e
       0.100071944 0.18354553 0.57049096 0.18569426
000050 89 d9 4f 3d a3 0b 41 be a4 72 9a be ef ee 0e 3e
       0.050744567 -0.18852095 -0.3016559 0.13958333
000060 71 35 b5 3c 4a f5 07 be 24 87 53 be 8a 94 09 be
       0.02212021 -0.13277164 -0.20657021 -0.1343557
000070 bb 19 cb 3d 7c a5 d4 bd 09 99 c0 bd 1a dd ad 3d
       0.09917017 -0.10383126 -0.09404189 0.084894374
000080 ff 8d 95 bd 89 0c 11 3e b0 32 4a 3e 84 d9 31 3e
       -0.07302474 0.14164938 0.19745898 0.17368132
000090 2a 77 df bc 3c a1 f3 3d 26 67 c6 3e 87 c0 7d bd
       -0.027278502 0.118959874 0.3875057 -0.061951187
0000a0 9c a7 80 3e 04 d4 20 be 48 af 98 bd d7 37 58 be
       0.25127876 -0.15705878 -0.07455307 -0.21115051
0000b0 ea 7e 5d be 9a 5b d5 3d cf f4 04 be 8d 6f ce 3c
       -0.21630445 0.10417862 -0.12984012 0.025199676
0000c0 b2 55 d9 3d 64 4b 29 be f7 5a 28 be 15 1f 83 bd
       0.10612048 -0.16532665 -0.1644095 -0.06402413
0000d0 87 16 53 be 1a 4c e6 3c d9 bb 7e be b4 9b 08 3e
       -0.20614062 0.02811246 -0.24876346 0.13340646
0000e0 b6 9d 06 bf ad 78 c5 bd 7a c6 59 be 96 9d fd 3d
       -0.525844 -0.09642158 -0.21267119 0.12383573
0000f0 7d e7 6d bc 8e 62 5c be bc 98 8b be 3a 97 f8 bd
       -0.014520523 -0.2152197 -0.27264965 -0.12138219
000100 53 81 73 3e a0 87 f4 3c cc ae 95 bd fd 55 e9 3d
       0.23779802 0.029849827 -0.073087305 0.11393354
000110 a5 8a e0 be 16 e6 9c 3d c7 69 d6 3d 97 34 cd 3c
       -0.43855777 0.07661073 0.10469394 0.02504949
000120 7d a9 26 3c dd 58 e8 bd 4e 91 c0 bd f2 40 46 3d
       0.010172245 -0.11345074 -0.09402715 0.04840178
000130 e3 81 31 be fd 62 7a be f6 be 84 be 78 f6 69 3e
       -0.17334704 -0.24451824 -0.25926942 0.22847927
000140 4a a2 06 bd 35 d2 67 bc 76 a6 49 be 07 76 b2 3d
       -0.032869615 -0.014149238 -0.19692406 0.08713918
000150 b5 8d 06 be fe 2d 33 be ff 06 00 bd 38 75 47 be
       -0.13139994 -0.17498013 -0.031256672 -0.19478309
000160 7c 30 ed 3d aa 76 4c 3d 23 38 a6 bd dd 4d 8a 3e
       0.11581513 0.049917854 -0.08116176 0.2701253
000170 c1 23 7d bd 27 e5 be bd b7 33 91 be 04 a0 e6 be
       -0.061801676 -0.09321051 -0.28359768 -0.45043957
000180 1f 81 88 3e 46 46 57 be c3 58 77 3e 6d d2 10 3e
       0.26661012 -0.21022901 0.24154954 0.14142771
000190 9d c4 e8 3c cc 81 19 3e e0 50 18 3d 74 93 df be
       0.028414065 0.1499092 0.037186503 -0.43667185
0001a0 2f b7 ff 3d 71 b7 60 be 10 ca 1a 3e c7 db 6b be
       0.124861114 -0.21944977 0.15116143 -0.23033057
0001b0 e7 c2 b1 be 32 9d 8b bd 86 d3 28 3e b0 6d 95 bd
       -0.3471901 -0.06817092 0.1648694 -0.07296312
0001c0 63 60 b6 3c a5 25 e2 bd 3f e8 4f 3e fe 30 c5 bd
       0.022262758 -0.110423364 0.20303439 -0.09628485
0001d0 eb f9 64 be 76 1a a2 bd 9e af 8a 3e c0 e6 9a 3c
       -0.22360961 -0.07915203 0.2708711 0.018908858
0001e0 07 6f 77 3e 9f 0a a4 3d c4 1e 4b 3e 13 75 ab 3c
       0.24163447 0.08009838 0.19835955 0.020929849
0001f0 91 79 b1 bd b9 a8 b1 3e c5 9d 09 be 36 ab 1f bd
       -0.08665765 0.34699038 -0.1343909 -0.03898164
000200 e6 21 75 be 38 86 75 be b0 57 39 3e 67 3e 31 3e
       -0.23938712 -0.23976982 0.18099856 0.17308961
000210 47 12 24 3e 72 3f f4 bd b1 06 96 be a0 44 ad 3e
       0.16022597 -0.11926164 -0.2930198 0.3384142
000220 2f d1 b1 bd cd a2 a0 be 6a 99 82 be b8 05 a0 be
       -0.08682477 -0.31374207 -0.2550767 -0.31254363
000230 cc ff 05 be 9e 7f b6 bd f6 35 41 3e bd ab 0c be
       -0.1308586 -0.0891106 0.1886824 -0.13737388
000240 f3 2d 63 be 7e 2d 15 bd 7e 4a d9 bd 89 23 00 3e
       -0.22185497 -0.036420338 -0.106099114 0.12513556
000250 52 72 b4 3d b5 18 65 3c 84 5d 66 be be 16 74 bd
       0.08810867 0.013982941 -0.22496611 -0.059592
000260 d9 1d 7b 3e 22 8e 70 3d d2 91 a8 bd fd 2c a0 bd
       0.24523105 0.0587293 -0.08230938 -0.07821081
000270 58 b6 a0 be fd 4f 17 3e ff 70 1d 3e 4c a8 c3 be
       -0.31389117 0.14776607 0.15375136 -0.38214338
000280 ca 90 ab 3c 21 65 13 3d 34 00 77 3d 64 61 1d 3c
       0.020943064 0.035985116 0.060302928 0.009605739
000290 ad 73 17 be 9a ee 87 3e 28 c7 a5 be e2 60 91 be
       -0.1479022 0.26549226 -0.32378507 -0.28394228
0002a0 3b 62 42 be f5 58 f6 3d 51 53 26 be 65 14 39 3c
       -0.18982784 0.12028686 -0.1624272 0.011296366
0002b0 5b e8 95 bc fa 12 0f be c5 9f dd bd a5 0d ab 3d
       -0.018299272 -0.13972083 -0.10821489 0.08352212
0002c0 7c 79 1f bd 2a 46 04 be 3d 12 a1 3d 6b 81 4d 3d
       -0.038934216 -0.1291739 0.07864807 0.05017225
0002d0 61 bb ff bb 25 64 76 bd fe 65 39 3c 8a cd 98 be
       -0.0078043197 -0.0601541 0.011315821 -0.29844314
0002e0 5f f8 28 bd b4 7c aa 3c d2 3a a9 bd 3c 87 ae be
       -0.04125249 0.020811416 -0.08263172 -0.3408755
0002f0 f9 a2 57 be 7a 4d 39 3e a9 52 7e be ca 3c 01 be
       -0.21058263 0.18095961 -0.2483622 -0.12620845
000300 4b 4c 24 be e6 87 00 3e 9b 3a 47 bd 9f 72 91 bd
       -0.16044728 0.12551841 -0.048639875 -0.0710194
000310 2d 74 88 3d 9e 01 af be b5 7e c4 bd 66 42 55 bd
       0.06662784 -0.3418092 -0.0959448 -0.052065276
000320 12 25 f9 bd ce c1 a5 3e 62 b2 82 bc b9 8a d0 3c
       -0.12165274 0.32374424 -0.0159542 0.025456773
000330 39 ed 35 be 6b 72 12 be 79 4e 89 3d ac 5f 20 be
       -0.17766275 -0.1430146 0.067044206 -0.15661496
000340 93 31 95 3d cd 74 97 be 33 45 13 be d2 a9 1e 3e
       0.07284846 -0.295813 -0.14381866 0.15494469
000350 f6 74 d4 3d 7a 9f 8c 3e 21 19 2e 3e a0 f6 25 be
       0.10373871 0.2746542 0.17001773 -0.16207361
000360 75 c7 f8 bd 9c 1e 05 be ec 7d 7c be df 4e 7b be
       -0.121474184 -0.12999958 -0.2465741 -0.24541806
000370 6f 1f f0 3d a2 26 32 3e e2 96 a1 be 08 3b 2b 3e
       0.117247455 0.1739755 -0.31560427 0.16721737
000380 9c 76 64 3d 3e 11 fb 3b 84 42 26 be fc 31 0a 3d
       0.055777177 0.0076619675 -0.16236311 0.033739075
000390 1d 33 3e 3e 4e 1c 0b be 76 f7 f9 3d ff 12 f2 bb
       0.18574186 -0.13585016 0.122054026 -0.0073875184
0003a0 0c 3c 42 be ba 2e f1 bc c4 5a 81 3d 3e c4 92 3e
       -0.18968219 -0.029441226 0.0631614 0.28665346
0003b0 3c 29 9f be cb b7 96 3d f1 ed 04 3d 13 79 4a be
       -0.31086147 0.073592745 0.03245348 -0.19772749
0003c0 cc c5 ad be 90 8a 32 bd c6 f5 2a be 37 c0 ce 3b
       -0.3393997 -0.043589175 -0.16695318 0.006309535
0003d0 e5 da 2e 3e 33 45 cd 3d a4 a4 54 bd bd 36 33 be
       0.17075689 0.10022964 -0.051914826 -0.1750135
0003e0 6b 3e bc be 9b 75 4d be e8 5b c6 bb 8a 0d 54 3d
       -0.3676637 -0.20064394 -0.0060534365 0.051770724
0003f0 0e a4 2e 3e 86 d7 7b be 72 7d d7 3c fc bb 92 3e
       0.1705477 -0.24593934 0.026304934 0.28659046

bias f4 [64]
000000 38 83 12 be 8b 9d c7 bd 26 a2 00 be e0 a4 bf bd
       -0.14307868 -0.09746846 -0.12561855 -0.09357619
000010 08 bb 1d 3b 81 c5 8e 3d ae ed 05 3e 59 c9 18 be
       0.0024067778 0.06971265 0.13078949 -0.14920558
000020 06 fc 75 be 53 a3 87 3d e2 c8 06 3e 0f a1 f5 3d
       -0.2402192 0.066229485 0.13162568 0.1199361
000030 24 ca a8 bc 88 f0 a9 3d 11 a6 85 bd e4 58 5b be
       -0.0206042 0.08297831 -0.06525815 -0.21420628
000040 17 cb 24 be 92 dd 29 be 65 2d 14 bd 15 14 f8 bd
       -0.16093098 -0.16588429 -0.036176104 -0.12113205
000050 39 97 86 bc 3a c4 2b 3b 4d cb 01 be 08 56 f3 bc
       -0.01642953 0.002620949 -0.1267521 -0.029704109
000060 fb a6 11 3e 2b f8 1e 3e e9 e8 8a bd da fa e2 bd
       0.14223854 0.15524356 -0.06782705 -0.110830024
000070 92 8c fc bd 20 98 98 3c bf 3d 2a be b0 45 03 3e
       -0.12331499 0.018627226 -0.16625117 0.12819552
000080 d8 30 84 bd ea e3 32 be 47 92 04 be 14 2e 13 be
       -0.06454629 -0.17469755 -0.12946425 -0.14373046
000090 8d 5d fe bd ed 4f de bd 05 99 61 be b0 05 b5 39
       -0.12420187 -0.108550884 -0.22031029 0.00034527248
0000a0 94 a8 e4 bd 60 cb 98 bc 3b ef 29 be d6 be af 3d
       -0.11164966 -0.018651664 -0.16595165 0.08581321
0000b0 05 8c 27 be 81 eb 44 bd d1 c4 49 be 2d d5 8e bd
       -0.16362007 -0.048076157 -0.19703986 -0.06974254
0000c0 84 4b cf bc 52 a1 42 be 97 75 f2 3d 7e 24 ad 3d
       -0.025304563 -0.19006851 0.11838835 0.08454226
0000d0 dd 6f 86 3d f6 25 7b 3d 69 ee 26 be 62 92 75 bc
       0.06564305 0.0613155 -0.16301884 -0.014988514
0000e0 33 9f 55 bb 9d 40 04 3e 33 30 7f be 8b 80 9f bd
       -0.003259611 0.12915273 -0.2492073 -0.077881895
0000f0 3b 58 0f 3d fb 54 5f 3d 7d f2 84 be ba 69 eb 3d
       0.034996253 0.054524403 -0.25966254 0.11494775

weight f4 [64, 64, 3, 3]
000000 f2 7b 42 bc 75 9b ea bd 87 4d 80 bd 88 4c 9b bd
       -0.011870371 -0.11455432 -0.06264787 -0.075829566
000010 90 39 ef bc bf f9 7d 3c d4 88 24 bd 8c 30 f3 bd
       -0.029202253 0.015501439 -0.040169552 -0.11874494
000020 b5 5e 80 3d 50 7b f3 bc 4b b1 a9 bd 87 a4 db bd
       0.06268064 -0.029721886 -0.08285769 -0.107247405
000030 3f 24 46 bc 8f f1 f8 bd e6 6e 60 bd e8 aa f3 bd
       -0.012093603 -0.12155449 -0.05479326 -0.11897832
000040 c7 d8 a4 bd 00 0b 0d be a7 2d a1 bd 3f 6b 0b bd
       -0.080491595 -0.13773727 -0.078700356 -0.034037825
000050 7a 1f 06 3d 6e 67 a2 bd 2d f8 16 bd 9b 5b dc bc
       0.032744862 -0.07929884 -0.036857773 -0.02689915
000060 7d a5 ae 3c 8a 1e 9e bd ed 69 25 3d 7a 13 97 bd
       0.021319145 -0.077206686 0.04038422 -0.07376762
000070 9d 2d e0 bd 8f c0 49 bc 29 fb f2 bc c4 28 d2 bc
       -0.109462 -0.012313976 -0.029660778 -0.025654204
000080 4f bb a4 bd 69 d5 07 3d ef 3f 34 bd ee c8 14 be
       -0.08043539 0.03316251 -0.044006284 -0.14529774
000090 82 38 fe bd b7 c9 55 bd 72 aa 81 bd 4f a1 fd bd
       -0.12413122 -0.052194323 -0.06331338 -0.12384283
0000a0 92 86 92 bd 04 80 0d be 06 b0 3e 3c 8b a2 23 bd
       -0.071545735 -0.13818365 0.011638647 -0.039949935
0000b0 61 4c 70 bd 03 fd 74 bd 52 22 2a be 5d ca 94 bd
       -0.05866659 -0.059811603 -0.16614655 -0.0726516
0000c0 72 a8 0e be 05 e4 04 bd 9c c5 2b bd ec 2a da bd
       -0.13931444 -0.03244402 -0.0419365 -0.10652718
0000d0 4d ac 08 be b3 0d 61 bd 61 60 e9 bd 55 ef 14 3c
       -0.13346978 -0.054944705 -0.11395336 0.009090264
0000e0 43 08 e3 bd 3c 2f 6e bd e1 fb c4 bc 12 17 39 bd
       -0.1108556 -0.058150515 -0.024045886 -0.045188017
0000f0 8a 91 22 be 79 c8 a2 bd f9 36 1a bb 7c b1 b8 bc
       -0.15875831 -0.079483934 -0.0023531301 -0.022545569
000100 79 17 fa bd 29 9e fb 3c 01 01 a1 bd 0a d7 99 bd
       -0.12211508 0.030715065 -0.078615196 -0.075117186
000110 b2 39 d5 bd 7d 47 f5 bd 43 fd 6e bd 8d 00 80 bd
       -0.10411395 -0.11976526 -0.058346998 -0.06250105
000120 50 6a 08 be 46 06 a8 3c 42 b2 aa bd 0e 02 bd bd
       -0.13321805 0.020510804 -0.08334781 -0.092289075
000130 06 8d c8 3c 44 9d 47 bd 16 ab 28 be 2b 57 7b bd
       0.024481308 -0.048733965 -0.16471514 -0.061362427
000140 4d 34 b0 bd 28 f8 e9 bd 01 6a 37 3d 83 2b 8b bd
       -0.086037256 -0.11424285 0.044778828 -0.067954086
000150 b2 de 25 3d e6 05 30 bd fb b3 8e 3d f0 02 8f bd
       0.040495582 -0.042974375 0.06967922 -0.06982982
000160 c1 a7 75 bd 0a 4e d2 bd aa 56 a7 bd 3d 9f 02 be
       -0.059974436 -0.10268791 -0.08170827 -0.12756057
000170 b0 0f ed 3c 54 fa 4a 3d 2d a9 09 be 3b a7 11 bd
       0.028938144 0.049555138 -0.13443442 -0.035559874
000180 57 4c 52 be e7 0d a1 bc 74 fa 2a be 26 47 06 bd
       -0.20536934 -0.01965995 -0.16697103 -0.032782696
000190 e2 da ca 3c 21 e3 03 be 73 1c e8 bc 98 2d ba bd
       0.024762575 -0.12879612 -0.028333878 -0.090907276
0001a0 81 05 05 bd 41 52 8e bd 13 52 0e 3d b2 2d 45 bd
       -0.032475952 -0.069492824 0.03474624 -0.04813928
0001b0 6d a6 da bc 22 64 3e 3b 14 46 a9 bd c4 ef 72 3d
       -0.026690686 0.0029051383 -0.082653195 0.05931069
0001c0 fd 6e b9 3b b3 2b 3e bd 6e 48 05 be b3 1b a8 bd
       0.005658983 -0.046428394 -0.13015911 -0.08208408
0001d0 27 0c d8 bd 49 78 57 bd de 2c 76 3c bf 0b 6c bd
       -0.10549193 -0.052604947 0.015025346 -0.05762839
0001e0 94 ba 89 bc 6a 65 e6 bd 07 16 d9 bd a5 ca 25 bd
       -0.0168126 -0.11249812 -0.105999045 -0.04047646
0001f0 4b 38 a5 bd 52 bf a6 bb f1 f6 1d bd 49 b0 1d 3d
       -0.08067378 -0.005088725 -0.03856558 0.038498197
000200 50 9a cb bd 07 8a 4a bc 1e 20 d2 bd 77 0f ad bd
       -0.09941542 -0.01236201 -0.10260032 -0.08450215
000210 ed b5 f1 bd 38 7b 5a bd 93 67 e5 bd fe 3b 49 bd
       -0.11802278 -0.053340167 -0.11201396 -0.04912948
000220 cf 9e e3 bd 5d 18 8c bd 2c 79 09 bd 9c 34 a0 bc
       -0.11114275 -0.068405844 -0.033562824 -0.019556336
000230 c5 c7 f9 bd 00 a1 83 ba c1 d7 a0 bd 26 27 31 bd
       -0.12196306 -0.0010042489 -0.07853652 -0.043250225
000240 d4 6d c8 3d 71 71 a8 3d 61 62 d9 3d a6 56 79 bd
       0.09786573 0.08224762 0.106144674 -0.06087365
000250 42 ba 85 bd 07 3f 4e bd 19 7b f5 3b 73 e6 89 3d
       -0.065296665 -0.050353076 0.007491481 0.06733408
000260 12 6f 3a 3d c3 16 9c bd 30 29 b3 3b 83 95 18 be
       0.04551608 -0.07621529 0.0054675564 -0.14900784
000270 3e 93 8f bd ba 3d 45 bd 58 69 68 3c 2d 4b 1a be
       -0.07010506 -0.04815457 0.014185272 -0.1506774
000280 ca 48 22 be 61 91 73 3d 87 b4 da bd 0c 95 5a bd
       -0.1584808 0.059464816 -0.10678964 -0.0533648
000290 50 eb b0 bd 64 17 cd bd df 88 c6 3c 6c 8a a1 bd
       -0.08638632 -0.10014227 0.024235187 -0.0788773
0002a0 84 41 ab bd d3 82 76 bd 00 54 8e bd 1e 71 0b 3d
       -0.083621055 -0.060183357 -0.069496155 0.034043424
0002b0 03 a8 4b 3d 7d b3 19 be 32 db 3e bc 7a 73 02 bd
       0.049720775 -0.15009876 -0.01164894 -0.03184841
0002c0 0d 1c bc 3c 6d 15 ad bd ea 4e c6 bd 91 02 a3 bd
       0.022962594 -0.08451352 -0.096830204 -0.07959474
0002d0 57 d4 93 bd 51 0b 22 bd 2e 79 66 3d b9 71 cb bb
       -0.07218235 -0.039561573 0.05626791 -0.006208625
0002e0 84 16 ed bc 41 48 b1 3a 83 8c f4 bc 24 64 64 bd
       -0.0289414 0.0013525562 -0.029852157 -0.055759564
0002f0 70 88 ee bd 09 71 da bd 4c b2 bc bd 5c 38 c0 3d
       -0.11647117 -0.10666091 -0.09213695 0.0938575
000300 90 40 05 bd 40 a7 01 be f7 72 fd bd 6d 34 52 bd
       -0.032532275 -0.12661457 -0.123754434 -0.05131953
000310 81 26 8c bd 14 44 20 be d6 07 33 3d 6b 0c b6 3c
       -0.068432815 -0.1565097 0.043708645 0.022222718
000320 59 14 26 bc d9 44 0f 3c 05 68 0b 3d 8d 91 00 bc
       -0.010136687 0.008744442 0.034034748 -0.007847202
000330 e9 29 09 be b8 d8 98 bd 6a ab 86 3d 77 a1 1b be
       -0.13394894 -0.07463211 0.065756634 -0.15198313
000340 1d d7 07 be da 02 bc bd e9 96 d3 3d b9 34 0e be
       -0.13265653 -0.091802314 0.10331518 -0.138873
000350 ee 3f 60 bd 0b f6 9b bd 66 6b 36 be 6b bf 13 bd
       -0.054748468 -0.07615288 -0.17814407 -0.036071222
000360 15 6a c3 bd f2 ad 14 be 76 ab 13 be ac 5e 24 bc
       -0.09541718 -0.1451948 -0.14420876 -0.010032337
000370 84 3e a4 bd ce b6 a1 bd 5b 6c f2 bd c8 97 68 bd
       -0.080197364 -0.07896195 -0.118370734 -0.056785375
000380 f7 8e 09 be a9 e8 8e bd b0 68 b8 bd db 32 1a be
       -0.13433443 -0.0697797 -0.090043426 -0.15058462
000390 58 88 ed bd fb e0 03 be 64 03 b5 bd d2 f8 9e bd
       -0.11598271 -0.12878792 -0.08838537 -0.077623025
0003a0 b8 63 0e be 12 87 08 be e6 e3 32 be e9 b6 40 bd
       -0.13905227 -0.13332775 -0.17469749 -0.047049437
0003b0 91 09 13 bc 29 e2 bb bc e7 10 1e be c4 3c b3 bd
       -0.008974449 -0.02293499 -0.15436135 -0.087518245
0003c0 46 00 f0 bc 3f 33 26 be 32 9b f6 bb 98 a7 4e bd
       -0.029297005 -0.16230486 -0.007525825 -0.0504528
0003d0 94 ea c1 3b c8 ba 8b bd 00 4c 59 3d a6 51 1c bd
       0.0059178565 -0.06822735 0.053050995 -0.038163804
0003e0 5e 61 f6 bc e4 ac 40 bc b2 c1 52 bc 57 9c 8f bb
       -0.030075725 -0.01175997 -0.012863563 -0.004382651
0003f0 9d b5 8e bd e7 26 c3 bc fe 32 06 bc b0 74 2f be
       -0.06968234 -0.023822261 -0.008190868 -0.17134356

bias f4 [64]
000000 ca 3f a0 bd e4 b4 9b bd c8 0a 47 bc 7d fd 80 bd
       -0.07824667 -0.076028615 -0.012148567 -0.06298349
000010 44 0e 01 bd 3d d6 59 bd 7c 42 a9 bc de 0c a0 bd
       -0.031507745 -0.05318283 -0.020661585 -0.07814954
000020 8f 25 da bc 5f 4e bd bc f8 28 90 bd 05 41 ce bd
       -0.026629237 -0.02310866 -0.07039064 -0.10070995
000030 e6 fa c1 bd d2 b8 37 bd f3 1b de bc bd ee e0 bc
       -0.09471683 -0.044853993 -0.027112937 -0.02745759
000040 d4 17 ef bc 01 f4 01 bd ec 15 4a bd a5 20 9e bd
       -0.029186167 -0.03172684 -0.049337313 -0.0772107
000050 1e 97 d4 bc 48 11 68 bd ae 40 8b bd ae ad de bd
       -0.025950965 -0.056657106 -0.06799446 -0.108729705
000060 cb 92 32 bd 9b 81 86 bd 4d f6 88 bd 04 70 20 bd
       -0.043597024 -0.06567689 -0.06687603 -0.039169326
000070 80 f1 a5 bd 3d ed 2b bc 38 ba 80 bd 23 c3 be bc
       -0.08102703 -0.010493574 -0.062855184 -0.023286408
000080 be 21 c8 bd 0f f9 c7 bd fe 8a 7f bd e4 31 65 bd
       -0.09772061 -0.09764301 -0.062388413 -0.055955783
000090 23 5b ec bd 49 0c 98 bc 0d 2c b1 bd 5c 20 8e bd
       -0.115408204 -0.018560546 -0.0865098 -0.06939766
0000a0 75 25 99 bc bb 0f 45 bd 96 ff 63 bd 42 2f b7 bd
       -0.018694619 -0.048110705 -0.055663668 -0.089445606
0000b0 8a d4 c9 bd b2 fc 3a bc 54 d8 e0 bc dc a1 97 bd
       -0.09854992 -0.011412786 -0.027446903 -0.07403919
0000c0 08 44 b7 bd 39 6f 3f bd 38 2a 8b bc a8 17 8c bd
       -0.08948523 -0.04673693 -0.016987905 -0.068404496
0000d0 b4 1b 7c bd 34 b4 a0 bd a2 17 93 bd af 4b ea 3c
       -0.061549857 -0.07846871 -0.07182242 0.028600542
0000e0 af 70 b0 bd 4a 8b 78 bd c2 37 2e bd 6a 4e fb bc
       -0.08615243 -0.06067971 -0.042533644 -0.03067704
0000f0 6d c2 91 bd 55 73 cd bd 64 b1 1b bd d1 86 5b bd
       -0.07117162 -0.100317635 -0.03801097 -0.053595368

weight f4 [32, 64, 3, 3]
000000 84 bf 60 bd 27 07 41 be c0 82 d9 bd 26 bc 7a ba
       -0.054870144 -0.18850385 -0.10620642 -0.00095647795
000010 0e 40 da bd b8 07 07 3d 6f 6a 92 bd 67 c0 23 bd
       -0.10656749 0.032966346 -0.07149207 -0.03997841
000020 51 7c 63 3c 0a 90 e2 bd 72 7b 89 bd c6 d5 3d be
       0.01388462 -0.110626295 -0.067129984 -0.1853858
000030 15 50 c1 bd e2 1d 0b bb a6 b0 b8 bd 23 a2 81 3d
       -0.094391026 -0.0021227528 -0.09018068 0.06329753
000040 e4 ee c6 bc 93 ad cc bd 03 88 48 3d 4f 17 73 3c
       -0.024283834 -0.09994044 0.048957836 0.0148371
000050 2c fa 9f 3d e1 48 ce bb 6a f2 15 3d 71 2e ab 3d
       0.078113884 -0.006295309 0.036608137 0.08358467
000060 2e 74 b9 3c ef 09 5b 3d 8d cc 58 3d ae ea bc bb
       0.022638407 0.05347627 0.05292945 -0.0057652807
000070 a9 7a 64 3c 58 f0 7f bc fc ac 03 3d 54 f9 de bd
       0.01394526 -0.015621267 0.032147393 -0.10887399
000080 44 dd 8b bd 1c 41 19 bb 6a 13 26 be 0e 4c 0a 3d
       -0.068293124 -0.0023384755 -0.16218343 0.033763938
000090 89 d6 8b 3d d0 ee 79 bd 49 32 59 bd 43 12 62 bd
       0.06828029 -0.061018765 -0.05302647 -0.055193197
0000a0 de 8c 10 be 8b 97 5a 3d 40 51 b2 bc bc 32 8c bd
       -0.14116237 0.05336718 -0.021767259 -0.06845614
0000b0 b5 1c bf bd a6 ac b2 bd 23 59 6c 3d 3f ef fe bc
       -0.09331647 -0.08724336 0.057702195 -0.03111994
0000c0 38 1a 02 be 19 73 be 3d 11 94 9c bd 78 c9 b8 bd
       -0.12705314 0.09299297 -0.07645429 -0.09022802
0000d0 6d 58 c7 3d 20 cd e5 bd e3 ca 71 bd d5 64 94 3c
       0.09733663 -0.11220765 -0.05903138 0.018114487
0000e0 8f d6 bb 3a 9e fa 90 bd 55 46 f3 bc 6e ef 84 bd
       0.0014330911 -0.070790514 -0.029696623 -0.0649098
0000f0 62 b8 6e be 64 14 76 bd 10 70 8e bd 01 b9 bf bb
       -0.23312524 -0.06007804 -0.06954968 -0.0058509116
000100 3d 30 9a bc cf 61 1c 3d 85 b7 ac bc f3 a6 a3 3d
       -0.01882183 0.038179215 -0.021083603 0.079908274
000110 e7 eb 1c bb f5 4f 9a bc b8 7d df 3d cb bb 53 3b
       -0.002394432 -0.018836955 0.10912651 0.0032307978
000120 40 6a 28 bc b5 ee c1 3b bc 80 54 3d 5a 6a 9e bd
       -0.010279238 0.0059183487 0.051880583 -0.07735129
000130 d1 b0 06 3d 6f 1a f4 bd 29 b7 ba bd bd 0d 7f bc
       0.03288347 -0.11919104 -0.09116966 -0.01556724
000140 56 42 7f bd 4a a6 e4 bd c2 1d 71 3d 60 42 94 bd
       -0.062319122 -0.111645296 0.05886627 -0.072392225
000150 f3 c1 8b 3e a1 06 f8 3d 26 47 96 bc fc a0 31 3d
       0.2729641 0.12110639 -0.018344473 0.043366417
000160 79 4d 04 3d fb 52 ad 3d a6 b9 cd bd 6a 55 96 bb
       0.032300446 0.08463093 -0.10045175 -0.004587819
000170 3c 5c bf bc 86 c8 e4 bd b7 5f 10 be 24 ea 40 bd
       -0.02335941 -0.11171059 -0.14099012 -0.047098294
000180 66 d8 b1 bd 02 0b fd bd 82 2b 39 3d 40 3c 74 3d
       -0.08683853 -0.12355615 0.045207508 0.05962777
000190 c4 01 d2 3c 8f 8d 3e 3d 1e 22 99 3c d8 b4 0c bc
       0.025635608 0.04652172 0.018693026 -0.008588038
0001a0 f0 b3 34 bd 0d 23 c2 bd f6 78 00 be de d5 8b bd
       -0.044116914 -0.09479342 -0.12546143 -0.06827901
0001b0 b5 df 14 be 60 cb fe bd 90 53 fa 3d 30 ef 12 bd
       -0.14538462 -0.124411345 0.122229695 -0.03587264
0001c0 0b 43 67 bc 4d 72 b2 bd bd ad 80 bd ed db b7 bc
       -0.014115105 -0.087132074 -0.06283138 -0.022443736
0001d0 b2 01 b9 bc c3 44 64 bd 98 48 23 be ee 03 b5 bd
       -0.022583816 -0.05572964 -0.15945661 -0.0883864
0001e0 79 fc ba ba a0 21 b6 3c f3 62 8e bc 91 46 29 bd
       -0.0014265917 0.02223283 -0.017381167 -0.041327063
0001f0 6c ba d6 bd 72 31 f3 bd 0c 5a 72 bd 47 77 05 be
       -0.10484776 -0.11874665 -0.059167907 -0.13033782
000200 3c 63 8b bc 38 9e d9 3c cb 78 b0 bd bd 20 48 3d
       -0.017015092 0.026564702 -0.086167894 0.048859347
000210 a7 1e 06 bd 4b fd d5 3d 17 01 23 3c e7 13 df bc
       -0.032744076 0.104487024 0.00994899 -0.02723117
000220 3d 9b a5 bd af 57 d1 bd 5b d7 06 be 4b f9 94 bc
       -0.0808625 -0.102218024 -0.13168089 -0.018185278
000230 ea 54 cb bd 9d 0d 57 bd ed 68 17 be 23 4d ad bd
       -0.099283054 -0.052503217 -0.1478612 -0.08461978
000240 17 fb e8 bd 89 7d f5 bd 49 9c 5d bd 40 32 18 be
       -0.113760166 -0.119868346 -0.054104123 -0.14862919
000250 23 2e a1 bc 97 51 d1 3c cf a8 09 be 2a 5c f9 3c
       -0.01967532 0.0255516 -0.13443302 0.030439455
000260 3e a8 28 be f2 e0 fd bd dc 1b a2 bb cf d3 56 3c
       -0.1647043 -0.123964205 -0.0049471688 0.013112023
000270 4c 68 0e be ad 89 8e bd 18 60 52 bc 59 be d3 bb
       -0.13906974 -0.06959853 -0.012840293 -0.0064619
000280 53 56 d2 bd 7d c6 e2 b9 81 cf 6c 3b 34 d6 e3 bc
       -0.10270371 -0.00043253964 0.0036134424 -0.027812101
000290 eb 02 2a bd 65 23 67 bd 1c 7d 92 3c cf 34 b2 bd
       -0.04150669 -0.05643024 0.017881922 -0.08701479
0002a0 3c a1 65 3d 3d a1 61 3b 94 c9 9a 3d 64 7e 00 be
       0.05606197 0.003442838 0.07557979 -0.12548214
0002b0 92 6c 37 bd eb 4a 6b bd d5 74 00 be 56 c0 d3 bd
       -0.044781275 -0.057444494 -0.12544568 -0.103394195
0002c0 c8 ec 06 be 1b 9e 95 3b 0b f0 2b 3e 36 4c 60 3c
       -0.13176262 0.004565967 0.16790788 0.013690045
0002d0 d7 91 4a bd 9c 4c 0a 3d a9 d2 f7 bc 4a a2 d1 bc
       -0.04945549 0.033764467 -0.030251818 -0.02559008
0002e0 d8 38 65 bd ed d5 5e bd bf 71 8d bd 89 5a 26 be
       -0.055962414 -0.054403234 -0.06906461 -0.16245474
0002f0 0d 4a 95 3d 47 60 a8 3d 34 3c 9e bd 6b f6 86 bd
       0.07289515 0.082214884 -0.077263266 -0.06589969
000300 ec 41 d0 bc fc 50 6f bd 77 c7 f6 bd e2 c1 eb bc
       -0.025422059 -0.058426842 -0.12049764 -0.028778974
000310 35 2c 20 be 8b 49 fb bb c9 eb 8a bd bc 74 3b bc
       -0.15641864 -0.007668679 -0.06783254 -0.011441406
000320 71 e0 51 bd 4d f8 8f bb fe be 18 bd 03 c0 fa bd
       -0.051239435 -0.0043936134 -0.03729152 -0.122436546
000330 d3 26 01 be 84 c3 98 bd de 78 28 bc 22 68 0d 3e
       -0.12612467 -0.07459167 -0.010282723 0.13809255
000340 ff 4e 3f bc 59 e2 13 3d 6c 4d a8 3d 24 62 a6 3d
       -0.011676549 0.036104534 0.08217892 0.081241876
000350 4f 18 00 3e 22 f9 cd 3c 8e cf c3 3d da 24 65 bd
       0.12509273 0.02514321 0.09561072 -0.055943348
000360 dc f3 44 be 60 9e 8f 3d bc af 04 be 71 de 26 be
       -0.1923365 0.070126295 -0.12957662 -0.16295792
000370 b7 a5 3e 3d 61 57 84 bd 42 9f ee bc d6 b1 68 3d
       0.046544757 -0.06461979 -0.029128674 0.056810223
000380 49 10 d1 3d 47 96 bf bd af aa 63 bd 15 1c 29 be
       0.10208184 -0.09354835 -0.0555827 -0.16514619
000390 ed aa 76 bd d8 23 47 bd ea 71 51 bc 24 9f 0f bd
       -0.0602216 -0.048618168 -0.012783507 -0.035063878
0003a0 f2 bc c9 bd 24 29 95 bd 6f 96 30 be a7 c6 9c bd
       -0.098504916 -0.072832376 -0.17244886 -0.076550774
0003b0 3e ea ca 3a 2c f4 83 3d 68 59 16 bd 1b b6 f1 3d
       0.0015481187 0.064430565 -0.03670636 0.11802312
0003c0 27 ca 35 be fd 63 1e 3e a9 a5 9d 3d 72 12 24 be
       -0.17752896 0.1546783 0.07697613 -0.16022661
0003d0 de af 46 bd 2d 7f ec bd 12 ed 9f 3d 56 9f fd bd
       -0.048507564 -0.11547694 0.078088894 -0.123839065
0003e0 62 a8 f2 3c 9e 8f cb bc b6 26 54 be 73 51 28 bd
       0.029621307 -0.024848755 -0.20717892 -0.0410933
0003f0 ea f6 d9 bd 10 ea fa 3c be 7d ec bc 3c 60 96 3c
       -0.10642798 0.030629188 -0.028868552 0.018356435

bias f4 [32]
000000 e5 2c 61 bc 0a a1 82 bd 4f 8c 1c bd ee 3b 27 bd
       -0.013743614 -0.06378372 -0.038219746 -0.040828638
000010 b2 93 f5 3c 3b 6c b2 bc 7c 52 a1 bc ab b5 8b bd
       0.029977653 -0.021780124 -0.019692652 -0.0682176
000020 d0 c4 d7 3a df 5e 9d bd 9b 56 3f bd 5a 87 cd bc
       0.0016461853 -0.07684111 -0.046713453 -0.025088955
000030 44 f1 3d 3b 62 6e 2f bd 00 27 c7 bd 1c 4c f8 bc
       0.0028982917 -0.04282988 -0.097242355 -0.03030973
000040 93 ae 8e bd f2 13 45 bd 20 5d a6 bd 19 35 5d bd
       -0.06966891 -0.048114724 -0.08123231 -0.054005716
000050 00 e4 a0 bc 17 02 3e bd ee 84 bc bd cc 0b 25 bd
       -0.019639969 -0.04638871 -0.09205042 -0.040294454
000060 b4 f1 49 bd 8b f6 b9 bc 3e aa b5 bc b2 53 63 bd
       -0.04930277 -0.022700569 -0.022175904 -0.05549974
000070 05 17 47 bd 73 77 83 bd 4f ad a8 bc de a2 36 bd
       -0.048605938 -0.064192675 -0.020590452 -0.044588916

weight f4 [16, 32, 3, 3]
000000 fa 80 57 3e 1f d8 56 3e f8 04 88 3d 87 45 c1 3d
       0.21045294 0.20980881 0.06641573 0.094370894
000010 a8 0b 24 3d ec 51 0b 3e 3d 57 00 bd 97 0b d1 3d
       0.04005018 0.1360547 -0.031333197 0.10207289
000020 91 4e 57 3d 05 71 ba bd 0b 3e 25 3e 79 f5 7c bb
       0.05256516 -0.09103588 0.16136949 -0.0038598462
000030 3a 9d 85 3b 85 5f 0a 3e ca fb 1b 3d 4a 60 06 3d
       0.0040775808 0.13513 0.03808192 0.032806672
000040 35 73 a0 bc ba 45 85 bc 2f df 44 bd ea b4 93 bd
       -0.019586185 -0.0162686 -0.048064407 -0.07212241
000050 e8 32 cf bd 2d d3 9d bd c6 3d f7 3b 99 95 80 bd
       -0.101171315 -0.07706294 0.0075452058 -0.062785335
000060 58 de d3 bc 26 eb ac bd eb 1b d3 bc e1 ab 52 bc
       -0.025862858 -0.084432885 -0.025770148 -0.012858362
000070 0e 83 e1 bc c3 2f 14 be b6 ec be 3d 44 be 2a 3d
       -0.027528312 -0.14471345 0.09322493 0.041685358
000080 fa 5b 27 bd 38 71 a8 3d 66 93 8e 3a 9c b3 0f bd
       -0.0408592 0.0822472 0.0010877668 -0.0350834
000090 7b 17 ca bc 3a 1c 92 3c 5d 4a b0 3d c2 0f 78 3c
       -0.0246694 0.017835725 0.08607934 0.015140476
0000a0 41 9e 17 be 0f 90 cc 3d 36 a1 0a 3e 46 e4 df 3d
       -0.14806463 0.099884145 0.1353806 0.109322116
0000b0 a5 57 ce 3d c8 f4 9a 3d 90 e8 9a bd e0 0a 88 3d
       0.100753106 0.075662196 -0.07563889 0.06642699
0000c0 1f 43 87 bd 58 7f dc bc 13 d1 d8 bd 9b dd a2 bb
       -0.06604599 -0.026916191 -0.10586753 -0.004970265
0000d0 63 70 6e bd 16 85 26 3b 48 dc 95 bd cf 84 6a bd
       -0.05821265 0.0025408915 -0.07317406 -0.057255562
0000e0 b4 d3 52 bd 4b fd b5 3c 17 0d 08 3e c6 3a 00 3d
       -0.051471427 0.022215506 0.13286243 0.03130605
0000f0 0c 82 69 bd 15 b5 e7 3c d1 1c 8b 3d f3 e3 b1 3d
       -0.057008788 0.028284589 0.06792606 0.08686056
000100 d4 52 a3 bd 53 ea be bd c8 18 47 bd 84 a9 96 bb
       -0.079747826 -0.093220375 -0.048607618 -0.0045978446
000110 65 f1 dc bd ce ee a3 bc 59 6e ab bd ec 78 2e 3c
       -0.1078823 -0.020011332 -0.083706565 0.010648947
000120 6f e8 2a be 9c 3e c7 3d b4 11 8d 3c f0 1b b5 3c
       -0.16690229 0.09728739 0.017220356 0.022108048
000130 e7 c4 a2 3d 56 49 cb 3c 24 ee f1 ba dd ab 17 3e
       0.079477124 0.024815243 -0.0018457812 0.14811654
000140 7c c8 a6 3d cf 01 db 3d f7 f6 93 3d ff 9e 33 bc
       0.08143708 0.10693704 0.07224839 -0.010963201
000150 7c 0c 3d 3e 07 5f bf 3d b1 09 38 bb 42 e7 93 3d
       0.18461794 0.09344297 -0.0028081948 0.07221843
000160 09 53 03 3d 66 1c ba 3d ea d2 e6 3c 69 73 fa bd
       0.03206161 0.09087448 0.028176744 -0.12229044
000170 d5 51 88 bd c6 02 ce 3d 02 a8 8a bd a9 63 a2 bd
       -0.06656233 0.10059123 -0.06770326 -0.07929165
000180 c0 e0 a0 bd c7 92 9e bd d6 67 15 bd a0 8e 00 be
       -0.07855368 -0.07742839 -0.03647598 -0.12554407
000190 d8 8a c0 bd 94 13 b0 bd e5 99 f9 3b 63 97 c9 bc
       -0.09401482 -0.08597484 0.0076172226 -0.02460832
0001a0 3f 01 78 3b 26 a9 1a be ee 8a 96 3c 2b 4a 38 bc
       0.003784254 -0.15103588 0.018376794 -0.011248152
0001b0 3e cb cb bd 6c 7f 96 3c 7e 22 27 bd 17 0f 67 bd
       -0.09950875 0.018371306 -0.04080438 -0.056410875
0001c0 73 f5 85 bd fd 40 34 3d 34 20 1a be a8 8e ce bd
       -0.06540956 0.04400729 -0.15051347 -0.10085803
0001d0 f6 8e af bc 0d 6c 83 3d f2 24 64 3d 9d 73 aa bb
       -0.021430474 0.064170934 0.055699296 -0.0052017705
0001e0 27 b2 c8 3b c1 a7 91 3d 4f 49 80 3d 4e ed bf 3d
       0.006124753 0.07112075 0.062639825 0.09371434
0001f0 c3 4a 24 3d 1b 80 04 3d d8 88 cc 3d 09 00 99 3d
       0.04011036 0.032348733 0.099870384 0.0747071
000200 ee 8f 02 3d 71 3d 53 bd 9c 0e e3 bc 84 e2 26 bc
       0.031875543 -0.051572267 -0.027716927 -0.0101858415
000210 0d 6f c5 3d c8 3d a3 3c cc 54 3c bd d5 d8 e9 bc
       0.09640322 0.01992692 -0.045979306 -0.028545776
000220 41 a1 13 3e 3e 1b 9d 3d bf 9a 52 3d da 4f 0f 3e
       0.14416982 0.07671212 0.05141711 0.13995305
000230 23 66 9f 3d 27 98 ad 3d 29 54 ef 3d 3f ed bc 3c
       0.07783153 0.084762864 0.11685974 0.023062347
000240 04 99 a4 bd 79 2a c4 37 0c 9a d3 bd 15 53 f4 3c
       -0.08036998 2.3384799e-05 -0.103321165 0.029824773
000250 39 cd d5 bb 0d 7d f6 3d 09 3c 28 bc 90 34 32 bd
       -0.0065247086 0.1203557 -0.01026822 -0.04350716
000260 76 ae b1 bd 94 75 b4 bd 17 f6 90 bd b1 2c 81 bd
       -0.08675854 -0.08811489 -0.07078188 -0.06307352
000270 01 16 3c bd 59 cd d0 bd 46 90 d4 bd cd 89 1a bd
       -0.045919422 -0.10195417 -0.103790805 -0.037729073
000280 74 73 ad bd 44 0f 58 3d fc a7 93 bc af 46 80 bc
       -0.084692866 0.052748933 -0.018024437 -0.015658705
000290 5f bc 36 bd db e4 bc 3c aa 32 db bd 2b 3d 1d be
       -0.04461324 0.023058346 -0.10703023 -0.15355365
0002a0 20 b2 95 3c 09 df fb bc 3c 07 a8 bd f7 9c 46 3d
       0.018273413 -0.030746 -0.08204505 0.048489537
0002b0 ee 5d 44 3d 65 8d bd 3d a8 76 88 bd 4b 53 8d 3d
       0.04794114 0.092554845 -0.06663257 0.069006525
0002c0 c7 ea 88 3d ca ac 67 3d 8e b1 f1 3c 9e ac 0a 3e
       0.06685405 0.05656127 0.02950361 0.1354241
0002d0 fd 8a c7 bc c7 a5 db 3d e4 b3 b2 3d 97 85 c1 3d
       -0.024358267 0.10724979 0.08725718 0.09449308
0002e0 e0 e4 e4 3d e5 e4 46 bc c7 a3 4c bd c7 d8 cf 3d
       0.11176467 -0.012139534 -0.049960878 0.10148769
0002f0 bc fa 3b bd 20 7a f2 bc e0 71 a8 bc 8f 07 31 bd
       -0.045893416 -0.02959925 -0.020562112 -0.0432201
000300 47 0e 42 be f1 f4 e0 bc e8 2b d2 3c 79 ea 74 bc
       -0.18950759 -0.027460547 0.025655702 -0.014948481
000310 28 e2 a7 bd e4 56 ba bd b4 3d 95 3d 1b 98 98 bc
       -0.08197433 -0.09098604 0.072871596 -0.018627217
000320 a1 23 bb 3c cf 61 20 3c 39 4d 87 3d 4c 56 20 bc
       0.022844138 0.009788944 0.06606526 -0.0097862
000330 af d7 47 3d b4 40 c1 3d d9 ed 67 3a 4f a9 a5 3d
       0.048789676 0.09436169 0.0008847393 0.08088934
000340 e8 8c 04 3c 95 72 d2 bc 72 7c 8d bb bc 6a f0 3d
       0.008090235 -0.025689403 -0.0043178136 0.11739108
000350 ee 0d 31 3d 77 60 9f bd be 8b 1d bb bc 6c 58 bd
       0.043226175 -0.07782071 -0.0024039592 -0.052838072
000360 9c 2f 44 bd 2e 7e 57 bd 8f ab 3a bd fa 93 e9 bd
       -0.047896966 -0.05261057 -0.045573767 -0.114051774
000370 17 dd f4 bd b9 26 9b bc 63 15 ed bd 13 dc 23 3d
       -0.11956232 -0.018939363 -0.11576345 0.0400048
000380 2a f5 a7 3b f2 0e 25 ba 77 37 d7 bd eb f7 b2 3d
       0.0051256614 -0.00062964775 -0.10508626 0.08738693
000390 68 f0 92 3d 67 4e 24 3d 4c a9 6a bd 30 0c 2d bd
       0.0717476 0.040113833 -0.05729036 -0.04224795
0003a0 6a 5f a3 bc 27 f0 e4 bd a6 07 20 bb 41 17 ce bd
       -0.019942958 -0.11178618 -0.0024418621 -0.10063029
0003b0 55 c9 94 3d ce 2f 81 3d b5 b5 6c bd fe 4a 99 ba
       0.072649635 0.06307946 -0.057790477 -0.0011695323
0003c0 cf d6 8c 3d 07 d4 9b 3d d8 7b 40 3c a6 79 29 3c
       0.06876909 0.076088004 0.011748277 0.010343945
0003d0 21 56 18 bd 50 3a 05 3d f0 fc ee bc 6b f2 31 bd
       -0.037191514 0.032526314 -0.029173344 -0.04344408
0003e0 e4 b2 3e be 68 e1 1b be 9f b1 ec bc e4 9f 82 3d
       -0.18622929 -0.15222704 -0.02889329 0.06378153
0003f0 e6 97 9a bc 79 7b 7e ba 46 39 00 3b 54 cd 9b bd
       -0.018871259 -0.000970773 0.0019565388 -0.076075226

bias f4 [16]
000000 ba cc c5 bb 42 3a 9c bc 15 ca f4 bb c8 57 12 bd
       -0.006036368 -0.019070748 -0.007470379 -0.035728246
000010 05 0e c3 39 66 4d 28 3b 70 83 df bc b2 89 d4 3c
       0.00037203744 0.0025680899 -0.027284354 0.025944564
000020 de c6 ec bc 18 fb 59 bb 3d 93 c2 bb ae 50 60 bc
       -0.028903421 -0.0033261236 -0.0059379623 -0.013691111
000030 66 4a 23 3a 35 54 fc bc 5c 1c 45 3b dc a6 ac bb
       0.0006229043 -0.030801872 0.0030076718 -0.0052689146
